Image_Classification_Pipeline（Supervised）/checkpoints/handgesture_CNN_Model_BestEpoch_4_TestLoss_2.2779_TestAcc_1.00.pth (torch, 250887 bytes, 10 tensors)

conv1.weight f4 [6, 3, 5, 5]
0.1123637 -0.046197254 0.0024972616 0.2985666 0.046793375 0.12865059 -0.0147602875 0.13268282
0.1467064 -0.115692705 0.15137658 0.035182547 0.050213177 -0.17359306 -0.31474474 0.018932376
-0.020796228 -0.16100317 -0.12302234 -0.20145068 -0.19117646 -0.13951574 -0.14685374 -0.20125072
-0.22849572 0.11549892 0.16028656 0.26870897 0.39181328 0.37786958 0.19004193 0.25108483
0.33532923 0.21278633 -0.18828115 0.19290777 0.2612055 0.10178301 -0.049983162 -0.5034383
0.2513924 -0.03835816 -0.11789069 -0.3595647 -0.5420646 -0.062292274 -0.18567087 -0.25047415
-0.406727 -0.4657125 0.0689607 0.12715356 0.4498135 0.7286824 0.55196345 0.37324443
0.25639316 0.34444648 0.5672287 -0.030600408 0.31387556 0.3586864 0.26717913 0.01492708
-0.6541785 0.21416673 0.039729945 -0.26666474 -0.6079286 -0.77075166 -0.04065222 -0.22564407
-0.40999264 -0.5970019 -0.62041104 -0.14921632 -0.1012357 -0.08724806 -0.2305198 0.00925027
-0.21496803 -0.18540889 -0.08389251 -0.100360736 0.026117537 -0.20216635 -0.16573928 0.029628929
-0.069324166 0.03368723 -0.06811531 -0.13041893 -0.023443602 -0.037111454 -0.114714146 -0.11333686
0.0059674093 -0.027741693 -0.11612259 -0.096727744 -0.07358655 -0.1410009 -0.04788327 -0.041699916
-0.06720817 -0.21950096 0.051872365 -0.04069626 0.04010512 0.046379875 -0.071397774 0.073617615
0.10996629 -0.07721676 0.050159235 0.018469255 0.10050221 0.088500276 -0.088635415 -0.05526688
-0.08255244 0.046434578 0.13284884 -0.08272417 0.050835248 -0.24970417 -0.21525925 -0.113691926
0.0035914718 0.1647871 -0.18603767 -0.0058088726 0.08682535 0.07591482 0.1528633 -0.006684614
0.101565935 0.07627286 -0.03168568 -0.00034277103 -0.08892051 0.055683497 0.0020608832 0.09017405
0.12133229 0.00015198522 0.1352329 0.115427144 0.112720944 0.112803355 0.07146627 -0.008019435
-0.12262633 0.16376162 0.101205334 0.12471722 -0.20498937 -0.30428338 0.116955705 0.1958723
0.18586172 -0.033957154 -0.23300952 0.0014745955 0.19115238 0.30567122 -0.04126963 -0.24022202
-0.2127678 0.15133135 0.1935443 0.1258449 -0.085588716 -0.039586857 0.26648688 0.18564038
-0.13218221 -0.21004069 0.06924354 0.29537883 0.14705972 -0.2616987 -0.5204509 -0.028550433
0.17890424 0.37694725 -0.27974883 -0.54133373 -0.13049333 0.2343913 0.34865907 -0.10113745
-0.42418912 -0.1816692 0.34028792 0.19067734 0.12865642 -0.13066117 -0.020184731 0.11565429
0.061358586 -0.369252 -0.18973921 0.088774204 0.26738223 0.14699882 -0.3645035 -0.55574185
-0.024311464 0.31752384 0.27558935 -0.24779989 -0.7140947 -0.10794341 0.41880608 0.41088203
-0.04397962 -0.6081621 -0.3188377 0.38404205 0.20442927 0.14647631 -0.42473787 -0.3156178
0.2687141 -0.31406766 -0.036849324 0.28390032 0.22927864 0.03780234 -0.34807697 -0.2593201
0.3156025 0.117390186 -0.121043235 -0.2762909 -0.30765918 0.22320828 0.16709594 -0.19520265
-0.30775204 -0.1599028 0.12248205 0.05481101 -0.15444544 -0.08082085 -0.17750567 -0.027119713
0.0070495848 0.041819654 -0.23709793 -0.069214486 0.24239768 0.17216142 -0.12286326 -0.53300816
00000000: f11e e63d 5539 3dbd 19a9 233b b9dd 983e
00000010: 69aa 3f3d fbbc 033e 22d5 71bc 01de 073e
00000020: 343a 163e 4cf0 ecbd 7602 1b3e 931b 103d
00000030: 55ac 4d3d 61c2 31be 3926 a1be 1218 9b3c
00000040: da5c aabc 04de 24be 23f3 fbbd 1649 4ebe
00000050: c3c3 43be 37dd 0ebe d460 16be ab14 4ebe
00000060: c8fa 69be b38a ec3d 2922 243e 3994 893e
00000070: c09b c83e 1f78 c13e 5a9a 423e 318e 803e
00000080: 46b0 ab3e a9e4 593e c6cc 40be 9d89 453e
00000090: babc 853e 9c73 d03d 25bb 4cbd 55e1 00bf
000000a0: 81b6 803e 721d 1dbd ad70 f1bd dd18 b8be
000000b0: bfc4 0abf 2f26 7fbd 8120 3ebe 263e 80be
000000c0: 853e d0be de71 eebe 443b 8d3d 8b34 023e
000000d0: f44d e63e ee8a 3a3f 7a4d 0d3f e519 bf3e
000000e0: f745 833e 4a5b b03e e635 113f b5ad fabc
000000f0: 4cb4 a03e bea5 b73e b4cb 883e b690 743c
00000100: 3e78 27bf 864e 5b3e debb 223d 4888 88be
00000110: 35a1 1bbf fb4f 45bf f182 26bd 3d0f 67be
00000120: 8eea d1be 1ed5 18bf 42d3 1ebf 2acc 18be
00000130: aa54 cfbd 1caf b2bd 620d 6cbe 728e 173c
00000140: 9420 5cbe d4db 3dbe d6cf abbd ee89 cdbd
00000150: 72f4 d53c b204 4fbe 8fb7 29be 5eb8 f23c
00000160: d4f9 8dbd 9ffb 093d 0a80 8bbd 8a8c 05be
00000170: cc0c c0bc 2e02 18bd 40ef eabd 281d e8bd
00000180: 428a c33b 8c42 e3bc aed1 edbd 3219 c6bd
00000190: 8cb4 96bd 8a62 10be 3f21 44bd 88cd 2abd
000001a0: 70a4 89bd dcc4 60be 1e78 543d 1fb1 26bd
000001b0: 4445 243d d3f8 3d3d ff38 92bd d5c4 963d
000001c0: 0236 e13d d223 9ebd c573 4d3d d64c 973c
000001d0: 1ad4 cd3d a23f b53d 7c86 b5bd 865f 62bd
000001e0: 4111 a9bd 2f32 3e3d 8709 083e 4a6b a9bd
000001f0: 9f38 503d 73b2 7fbe ec6c 5cbe 50d7 e8bd
00000200: e65e 6b3b f3bd 283e a980 3ebe 5b58 bebb
00000210: 7dd1 b13d 3b79 9b3d 3288 1c3e 9b0a dbbb
00000220: cd01 d03d f234 9c3d d8c8 01bd f3b5 b3b9
00000230: f51b b6bd 6114 643d e20f 073b 2cad b83d
00000240: 107d f83d 395e 1f39 7e7a 0a3e 1165 ec3d
00000250: 3dda e63d 7205 e73d e85c 923d f363 03bc
00000260: 8323 fbbd 20b1 273e be44 cf3d be6b ff3d
00000270: bce8 51be 08cb 9bbe 7986 ef3d c092 483e
00000280: 8952 3e3e a816 0bbd 0c9a 6ebe 3747 c13a
00000290: 73bd 433e f080 9c3e 580a 29bd c3fc 75be
000002a0: cddf 59be 9bf6 1a3e 7a30 463e 7cdd 003e
000002b0: 2349 afbd d425 22bd f870 883e 8318 3e3e
000002c0: c65a 07be e814 57be 8fcf 8d3d e53b 973e
000002d0: d396 163e 5ffd 85be 453c 05bf 99e2 e9bc
000002e0: ac32 373e 3bff c03e 3d3b 8fbe d994 0abf
000002f0: 0ba0 05be 4604 703e 7183 b23e 2721 cfbd
00000300: 512f d9be 7e07 3abe 383a ae3e ec40 433e
00000310: 82be 033e 0bcc 05be 735a a5bc 28dc ec3d
00000320: 2453 7b3d 990e bdbe ff4a 42be 40cf b53d
00000330: 53e6 883e dc86 163e 34a0 babe 1945 0ebf
00000340: d628 c7bc 7c92 a23e 0c1a 8d3e 41bf 7dbe
00000350: e9ce 36bf 6f11 ddbd c06d d63e 215f d23e
00000360: f923 34bd 83b0 1bbf b23e a3be 29a1 c43e
00000370: e855 513e e3fd 153e 3e77 d9be a898 a1be
00000380: e594 893e 7acd a0be 51ef 16bd 625b 913e
00000390: 05c8 6a3e a0d6 1a3d 2537 b2be 9bc5 84be
000003a0: a796 a13e 446a f03d 84e5 f7bd 0076 8dbe
000003b0: 8185 9dbe b690 643e 331b 2b3e 34e3 47be
000003c0: ad91 9dbe 8fbd 23be ded7 fa3d 8281 603d
000003d0: f226 1ebe 6785 a5bd 0cc4 35be 292a debc
000003e0: 3400 e73b 164b 2b3d cdc9 72be 53c0 8dbd
000003f0: 1937 783e 154b 303e bc9f fbbd 3973 08bf

conv1.bias f4 [6]
-0.094094686 -0.199083 0.42111325 0.16776212 0.07869737 0.050730832
00000000: b7b4 c0bd 6adc 4bbe 289c d73e d5c9 2b3e
00000010: 162c a13d 22cb 4f3d

conv2.weight f4 [16, 6, 5, 5]
-0.055220757 -0.040784385 0.057766654 -0.06806224 0.029809302 -0.09218684 0.049059995 0.010339711
-0.024986438 0.033383407 -0.08521212 -0.06292176 -0.033945806 -0.09377007 -0.05366848 -0.068230234
0.04071164 0.036881365 0.0028784594 0.019570542 -0.10208295 0.005544721 0.018548276 -0.09176069
0.013200504 -0.05202829 0.008104384 0.019321173 0.05875486 -0.055090614 -0.07169079 0.07075252
0.028127713 0.026977414 0.016726337 -0.034933705 0.04431928 -0.07713515 -0.00019636913 0.02459394
0.049369197 -0.045161877 -0.05987582 0.021204779 -0.07537801 -0.07325876 -0.0774154 -0.043894004
-0.022981556 -0.05537106 -0.04400064 -0.079473406 0.032857597 -0.014079942 -0.061349142 0.0047874907
-0.066140555 0.045054775 0.05806667 -0.08629949 -0.082409956 -0.061550625 -0.055202346 0.02247132
-0.09014815 -0.07897818 0.02280784 -0.04467876 -0.024580752 -0.075468756 0.021953164 -0.010208201
-0.05267666 -0.041333824 0.008369505 -0.0049317996 0.022287456 0.020773796 -0.0005871321 -0.039773606
0.021824745 -0.015627671 -0.056145716 0.07748841 0.07131073 -0.08719033 -0.05873702 -0.032333694
-0.05780148 0.06060381 -0.076608405 0.06433225 -0.037701003 0.03227951 0.021707917 -0.05024413
0.04504377 -0.07013992 -0.048651647 0.021979649 0.07076182 -0.029380852 -0.046439588 -0.045336794
-0.029727122 -0.022446955 -0.013496188 -0.04351616 0.030612845 0.0063651437 -0.047435924 -0.040859465
0.02099017 0.0032123888 0.062312223 -0.006878935 -0.06002231 -0.057088234 -0.019974433 -0.01374134
0.01373969 -0.012727816 0.03420138 -0.021802215 0.063712 0.01561286 -0.026965778 0.070367835
0.017173002 -0.058317006 -0.04867055 0.048433576 0.03471775 0.06055355 -0.008159201 0.053678747
0.03756897 0.022187276 -0.021712044 0.07646175 0.0133949835 -0.023364594 -0.0039785816 0.077836104
0.05298925 -0.008792545 0.07783317 0.033390123 -0.045927014 -0.075945795 -0.13781416 -0.29300344
-0.35480055 -0.14746548 -0.17014681 -0.28410769 -0.38322508 -0.2978515 -0.10219216 0.06743033
-0.009223706 -0.1858362 -0.23486744 -0.1743592 -0.105122335 0.34953254 0.21523492 -0.0011218779
-0.010845848 0.0118151875 0.3669192 0.25884005 0.14819959 0.2831933 0.23877597 -0.019070882
0.050465077 0.01064647 -0.027658293 0.0062929955 0.025522223 0.042263016 -0.0058651436 -0.034396447
-0.028798966 0.012524198 0.1442581 0.15877841 0.064442836 -0.020957083 -0.041875694 0.13286717
-0.016429365 -0.029813662 -0.11706947 -0.005760173 -0.088295326 -0.049050745 -0.07503446 -0.10052692
-0.061949726 -0.05704665 -0.17395332 0.08074957 0.20458655 -0.09658266 -0.16879329 -0.29077873
0.032584593 0.27460116 -0.06827649 -0.22594315 -0.40127388 -0.1438542 0.23453291 -0.08804883
-0.1902421 -0.26500833 -0.1396224 0.121718004 -0.0053301165 0.0065102773 0.019580403 -0.11975783
0.08339024 -0.045912758 -0.089873664 -0.09306053 -0.079379894 0.009821459 -0.06957167 -0.10342487
-0.107071795 -0.17254293 0.025882546 -0.06584701 -0.0606441 -0.118856005 -0.17121038 -0.19049904
0.012415325 0.06950614 0.0035532017 -0.017279051 -0.17200732 -0.13669716 0.12101109 0.16905613
0.08064881 -0.076028466 0.060084883 0.08754283 0.06606022 -0.057444572 -0.012279042 -0.0031088043
00000000: 292f 62bd 870d 27bd ba9c 6c3d 3764 8bbd
00000010: a332 f43c 74cc bcbd 22f3 483d e467 293c
00000020: 5cb0 ccbc 0abd 083d b183 aebd 20dd 80bd
00000030: c20a 0bbd 860a c0bd 7bd3 5bbd 4bbc 8bbd
00000040: 40c1 263d ea10 173d 89a4 3c3b 6752 a03c
00000050: de10 d1bd 7eb0 b53b 8ef2 973c 07ed bbbd
00000060: ed46 583c 9e1b 55bd 40c8 043c 7047 9e3c
00000070: f0a8 703d b2a6 61bd 9fd2 92bd b2e6 903d
00000080: 176c e63c bdff dc3c ac05 893c a516 0fbd
00000090: 2288 353d 09f9 9dbd 70e8 4db9 3b79 c93c
000000a0: 5b37 4a3d a9fb 38bd 5940 75bd a5b5 ad3c
000000b0: c95f 9abd b008 96bd f78b 9ebd 33ca 33bd
000000c0: d143 bcbc c4cc 62bd 043a 34bd f4c2 a2bd
000000d0: b095 063d 8faf 66bc 3d49 7bbd 62e0 9c3b
000000e0: b374 87bd 5b8b 383d 51d7 6d3d c9bd b0bd
000000f0: 8dc6 a8bd 821c 7cbd db1b 62bd c615 b83c
00000100: 989f b8bd 50bf a1bd 82d7 ba3c 1301 37bd
00000110: 935d c9bc 5d8f 9abd 1fd7 b33c 4c40 27bc
00000120: 7bc3 57bd a84d 29bd 4020 093c ef9a a1bb
00000130: 2f94 b63c cf2d aa3c c5e9 19ba a6e9 22bd
00000140: cfc9 b23c 9a05 80bc 0df9 65bd 3eb2 9e3d
00000150: 5c0b 923d d890 b2bd 3b96 70bd 5670 04bd
00000160: 3fc1 6cbd b33b 783d dee4 9cbd a0c0 833d
00000170: 5e6c 1abd 8537 043d cdd4 b13c cacc 4dbd
00000180: d17f 383d 85a5 8fbd f346 47bd aa0e b43c
00000190: 93eb 903d 1db0 f0bc 7037 3ebd 13b3 39bd
000001a0: 4b86 f3bc ade2 b7bc 1e1f 5dbc 003e 32bd
000001b0: cac7 fa3c b292 d03b 2c4c 42bd 415c 27bd
000001c0: 94f3 ab3c f186 523b 1a3b 7f3d b068 e1bb
000001d0: f4d9 75bd 5ad5 69bd 6ca1 a3bc 5b23 61bc
000001e0: 701c 613c 5488 50bc bf16 0c3d 8f9a b2bc
000001f0: 707b 823d 15cd 7f3c 56e7 dcbc 031d 903d
00000200: 65ae 8c3c d0dd 6ebd c55a 47bd 4962 463d
00000210: 3334 0e3d 0007 783d 2bae 05bc 3fde 5b3d
00000220: ece1 193d 17c2 b53c 75dd b1bc fa97 9c3d
00000230: a276 5b3c 1b67 bfbc c35e 82bb 8968 9f3d
00000240: 410b 593d 9b0e 10bc ff66 9f3d 15c4 083d
00000250: f71d 3cbd 7889 9bbd 281f 0dbe 8c04 96be
00000260: 6ba8 b5be 3101 17be f73a 2ebe 9076 91be
00000270: 1436 c4be fe7f 98be 204a d1bd ea18 8a3d
00000280: 071f 17bc d84b 3ebe 1781 70be 388b 32be
00000290: 614a d7bd eef5 b23e 8b66 5c3e fa0b 93ba
000002a0: c9b2 31bc 7d94 413c d5dc bb3e af86 843e
000002b0: a2c1 173e b6fe 903e b081 743e 8a3a 9cbc
000002c0: 78b4 4e3d 886e 2e3c a593 e2bc 7935 ce3b
000002d0: fb13 d13c fc1b 2d3d 6430 c0bb 4ae3 0cbd
000002e0: cfeb ebbc 4b32 4d3c 65b8 133e cf96 223e
000002f0: 9bfa 833d 30ae abbc d985 2bbd 550e 083e
00000300: e096 86bc c83b f4bc 1ec2 efbd d5bf bcbb
00000310: 2ed4 b4bd 6fe9 48bd abab 99bd 0fe1 cdbd
00000320: ffbe 7dbd c0a9 69bd d220 32be 0860 a53d
00000330: 237f 513e 21cd c5bd 26d8 2cbe f3e0 94be
00000340: 6c77 053d 8698 8c3e 8bd4 8bbd a45d 67be
00000350: c573 cdbe 844e 13be 6529 703e f252 b4bd
00000360: d3ce 42be 2caf 87be 2df9 0ebe 4a47 f93d
00000370: 42a8 aebb 2a54 d53b 1567 a03c 9843 f5bd
00000380: 81c8 aa3d 040f 3cbd af0f b8bd 8596 bebd
00000390: ed91 a2bd 2fea 203c 977b 8ebd 6bd0 d3bd
000003a0: 7548 dbbd 18af 30be a207 d43c ccda 86bd
000003b0: f365 78bd c76a f3bd c651 2fbe 2e12 43be
000003c0: a669 4b3c 3c59 8e3d d5dc 683b cc8c 8dbc
000003d0: b022 30be 57fa 0bbe aad4 f73d 0d1d 2d3e
000003e0: 342b a53d d0b4 9bbd 911b 763d a849 b33d
000003f0: 954a 873d 004b 6bbd 092e 49bc 15bd 4bbb

conv2.bias f4 [16]
0.0024043412 0.10787564 -0.084557846 -0.16422954 -0.050646942 -0.11733163 -0.17906843 -0.28430605
-0.090224214 -0.06324596 -0.36327085 -0.10535213 -0.00719011 0.17566736 0.011243872 -0.26337653
00000000: 2792 1d3b e7ed dc3d aa2c adbd ca2b 28be
00000010: 2b73 4fbd 914b f0bd b75d 37be 9090 91be
00000020: 79c7 b8bd 1987 81bd a3fe b9be dcc2 d7bd
00000030: 049b ebbb 25e2 333e 3838 383c 4ad9 86be

fc1.weight f4 [120, 400]
0.01684694 -0.031417448 -0.047137853 0.004140377 0.036507834 -0.0052932524 0.012526824 0.018940004
0.034685407 -0.04777625 -0.02240879 0.003845435 0.046728794 0.045615423 -0.0351536 -0.03820885
0.047678225 -0.0038833118 -0.027780082 -0.025091475 0.027732842 0.03214432 0.042154044 -0.005793972
-0.010197798 0.06873432 0.08315973 -0.06531014 0.04291726 -0.04912692 -0.016985107 0.06495275
-0.042228833 -0.07697426 -0.07889459 -0.02662771 0.045114387 -0.028954497 0.017555382 -0.021666458
-0.01599183 -0.025816845 0.016849173 -0.055351786 0.013579984 -0.012609075 0.07674494 0.06912325
-0.033677448 0.056120537 0.06374185 -0.05407145 0.03603514 0.0871248 0.04755632 -0.023168456
0.020656575 0.048489586 0.06999302 0.049433634 -0.024965653 -0.012918996 0.022599978 0.036454014
-0.014328061 0.056652598 0.015363967 0.049973574 -0.035508662 -0.059782334 -0.0004892607 0.006864964
-0.020085733 -0.09610548 -0.12317342 0.048143763 0.007198048 -0.024397159 0.106237434 0.050790478
0.056868214 0.047738057 -0.035190314 -0.023359034 0.0062370133 0.021443732 0.07385112 0.007513979
-0.038911212 -0.09340661 -0.032985795 0.059659492 0.067104034 0.00435335 -0.121238455 -0.046847437
-0.05678299 -0.013826977 -0.029205805 -0.07098152 0.05535893 -0.011962881 -0.0012426288 -0.026623536
-0.003342233 -0.036430057 -0.00888961 0.03340828 -0.043334626 -0.041824095 -0.010982147 -0.031916104
-0.019737605 -0.017010363 -0.016673828 -0.009405173 0.0071423063 -0.039717156 -0.008462698 -0.049797002
0.025585925 0.042768106 -0.039927796 -0.029591737 0.042686425 0.04752386 0.11096126 0.06871755
0.13962372 0.055682342 -0.006242513 0.014737574 -0.026124073 0.08196804 -0.020559566 -0.035651177
-0.05820124 -0.011574944 -0.11709899 -0.114985116 -0.06501537 -0.029340949 0.027923027 -0.088094525
-0.06430423 -0.11387245 -0.05268185 0.0060182167 -0.023880403 -0.019674266 0.034428336 0.03357406
0.0038397568 -0.000844331 0.020237908 0.015242448 -0.005391062 -0.024956241 -0.07179568 0.064083695
0.033545546 -0.023548365 -0.008491449 -0.053195164 0.004584087 -0.056997675 0.0066466625 -0.02835018
-0.050740346 0.0772564 0.010551426 0.036757596 0.007600399 0.0065553263 0.0073413868 0.049587585
0.017719898 -0.017635835 0.025069408 0.1417088 0.016191445 -0.028761994 -0.0065509942 0.092806056
0.15815765 0.09775191 0.056262333 -0.06820453 0.05290075 0.08538321 -0.013497966 0.011617757
-0.009697295 0.039538424 0.009827903 -0.011501341 -0.023657355 -0.012122338 0.0046310206 -0.07389046
0.0342037 -0.0441372 -0.036151104 0.00068339123 0.012839428 0.02913552 0.018227777 0.00420323
-0.00506273 0.051873785 -0.04399445 -0.019888999 0.032528598 -0.05277232 0.023815596 0.035087116
0.016302206 -0.029517615 -0.031246582 -0.015442866 -0.02230781 0.01891087 0.016467327 0.0061540785
0.026656248 -0.045878116 -0.045249026 0.039071582 -0.0095747635 -0.045302458 -0.013790013 0.035515144
-0.004941206 0.029171811 0.02755989 -0.014476861 0.025146907 0.014600638 -0.030796468 -0.011219787
0.029939706 0.020456638 0.007781568 -0.009189148 -0.035929456 -0.018585237 0.033473313 -0.0018838565
-0.032219917 0.007502543 0.0037174365 0.036137216 -0.09277458 -0.10582433 -0.033987213 0.021859175
00000000: 9802 8a3c 95af 00bd 9f13 41bd 00ac 873b
00000010: 3d89 153d 0573 adbb 4f3d 4d3c 1128 9b3c
00000020: 4912 0e3d 07b1 43bd a492 b7bc b203 7c3b
00000030: b166 3f3d 3dd7 3a3d 39fd 0fbd e280 1cbd
00000040: 3e4a 433d 297f 7ebb 0e93 e3bc a38c cdbc
00000050: fc2f e33c c3a9 033d b8a9 2c3d 5cdb bdbb
00000060: aa14 27bc 94c4 8c3d a64f aa3d 53c1 85bd
00000070: 02ca 2f3d 4f39 49bd 5a24 8bbc f305 853d
00000080: 24f8 2cbd aea4 9dbd 7d93 a1bd 5b22 dabc
00000090: ddc9 383d fb31 edbc 4ed0 8f3c db7d b1bc
000000a0: 4c01 83bc d97d d3bc 4707 8a3c 8eb8 62bd
000000b0: 957e 5e3c 4b96 4ebc 732c 9d3d 7e90 8d3d
000000c0: 5df1 09bd a6de 653d 168b 823d 067a 5dbd
000000d0: 9599 133d 7d6e b23d 6aca 423d c6cb bdbc
000000e0: fa37 a93c 049d 463d 8058 8f3d ec7a 4a3d
000000f0: c584 ccbc 32aa 53bc 9723 b93c ce50 153d
00000100: 3ec0 6abc 8e0c 683d 26b9 7b3c 17b1 4c3d
00000110: 8871 11bd 52de 74bd bb41 00ba 7ef3 e03b
00000120: d68a a4bc f3d2 c4bd 5942 fcbd 6532 453d
00000130: 9add eb3b 8ddc c7bc 0393 d93d ad09 503d
00000140: a5ee 683d fb88 433d b823 10bd 725b bfbc
00000150: dc5f cc3b c4aa af3c 423f 973d d337 f63b
00000160: 5d61 1fbd f74b bfbd 1d1c 07bd 835d 743d
00000170: d76d 893d 8ca6 8e3b de4b f8bd 19e3 3fbd
00000180: 4895 68bd 8c8a 62bc 0341 efbc c25e 91bd
00000190: 0cc0 623d f6ff 43bc b4df a2ba 9a19 dabc
000001a0: 5d09 5bbb af37 15bd baa5 11bc 1fd7 083d
000001b0: a67f 31bd be4f 2bbd 77ee 33bc 76ba 02bd
000001c0: c2b0 a1bc 5159 8bbc 8d97 88bc 2818 1abc
000001d0: 020a ea3b 75ae 22bd 21a7 0abc f1f7 4bbd
000001e0: 9399 d13c 9c2d 2f3d 548b 23bd 5f6a f2bc
000001f0: f6d7 2e3d 61a8 423d a83f e33d c9bb 8c3d
00000200: 85f9 0e3e 2b13 643d ff8d ccbb de75 713c
00000210: 2702 d6bc dcde a73d 896c a8bc f806 12bd
00000220: 6c64 6ebd d5a4 3dbc 98d1 efbd 517d ebbd
00000230: c726 85bd 6e5c f0bc d5be e43c e76a b4bd
00000240: f0b1 83bd f635 e9bd ecc8 57bd 7634 c53b
00000250: d6a0 c3bc ed2b a1bc ba04 0d3d f484 093d
00000260: 6ea4 7b3b 1856 5dba f8c9 a53c 76bb 793c
00000270: 81a7 b0bb 0871 ccbc 9d09 93bd 503e 833d
00000280: 0e67 093d 80e8 c0bc b81f 0bbc 2ce3 59bd
00000290: 1c36 963b 6576 69bd 3fcc d93b a33e e8bc
000002a0: 1cd5 4fbd 9a38 9e3d e3df 2c3c 228f 163d
000002b0: c50c f93b 10ce d63b 0490 f03b 5a1c 4b3d
000002c0: 5229 913c 0779 90bc 5c5e cd3c 1d1c 113e
000002d0: eca3 843c 469e ebbc b9a9 d6bb 1a11 be3d
000002e0: 14f4 213e 2732 c83d 5573 663d d1ae 8bbd
000002f0: 75ae 583d 64dd ae3d 9326 5dbc 6858 3e3c
00000300: 67e1 1ebc 0bf3 213d 3605 213c 1f70 3cbc
00000310: 12cd c1bc c59c 46bc d1bf 973b e253 97bd
00000320: 2e19 0c3d 35c9 34bd 2e13 14bd 9c25 333a
00000330: 775c 523c 9dad ee3c 6b52 953c 40bb 893b
00000340: 42e5 a5bb 9b79 543d 8633 34bd 41ee a2bc
00000350: b53c 053d ca27 58bd ed18 c33c 82b7 0f3d
00000360: 348c 853c edce f1bc d5f8 ffbc 1304 7dbc
00000370: debe b6bc f8ea 9a3c 7de6 863c 27a8 c93b
00000380: 345e da3c b1ea 3bbd 0b57 39bd 8609 203d
00000390: 78df 1cbc 128f 39bd 82ef 61bc 5478 113d
000003a0: d7e9 a1bb b9f9 ee3c 47c5 e13c 5b30 6dbc
000003b0: e300 ce3c 8437 6f3c e048 fcbc 33d3 37bc
000003c0: 1d44 f53c ae94 a73c 86fc fe3b 158e 16bc
000003d0: c42a 13bd 1140 98bc 501b 093d bceb f6ba
000003e0: 08f9 03bd e4d7 f53b 3ca0 733b 9e04 143d
000003f0: 9900 bebd 6dba d8bd 2d36 0bbd 0312 b33c

fc1.bias f4 [120]
0.045086544 -0.071025446 -0.050890546 -0.012991423 -0.009504188 0.017040223 -0.09510314 -0.024704777
-0.047950335 -0.040915083 0.041802544 0.035113852 0.08199632 -0.008866949 0.042973835 0.02837852
-0.005207889 0.015153695 0.0010916663 0.060022518 0.11867355 -0.06917692 -0.0261413 -0.060619693
0.043012574 0.050418712 0.054372836 0.017686285 0.0269142 -0.04094548 -0.016977357 -0.030761795
-0.0717083 0.017444175 -0.08354802 0.007417605 0.01183145 0.057710215 -0.024521478 -0.018166086
0.02566042 -0.022448676 0.027735041 -0.0086615635 -0.008979859 -0.009633542 -0.086347386 -0.021976687
0.0030563823 0.01372762 -0.11060594 0.086868085 -0.014296222 0.0031064532 0.048214458 0.014172719
0.04484704 0.020728145 -0.018945077 -0.03961616 0.07944313 -0.015109443 0.060101185 -0.007950531
0.018534943 -0.107318535 -0.019702144 0.018566985 -0.10512515 0.116853625 0.009348145 0.024985941
0.018834686 -0.0030428593 0.10934013 0.03638444 0.10454082 -0.04374923 0.029520936 0.01009448
-0.028790602 -0.008092116 -0.035317376 0.10380116 -0.05708231 -0.0064118085 -0.04056695 0.011517253
0.10062225 0.02878518 0.00013531704 -0.010419292 0.061249647 -0.02906041 -0.017490745 -0.01799259
-0.0128700975 0.030189464 -0.010741444 -0.03417115 0.10503315 -0.05296558 0.043536168 0.033047915
-0.019906782 -0.020638626 -0.016600745 0.06345923 0.03848777 -0.06266267 -0.026105525 0.0081519885
0.0017667618 0.019362437 -0.0784546 -0.013643865 0.034099 0.046815813 -0.015830649 0.019063402
00000000: abac 383d ca75 91bd 9b72 50bd fad9 54bc
00000010: 74b7 1bbc f097 8b3c 6fc5 c2bd ac61 cabc
00000020: 9267 44bd 9396 27bd 2539 2b3d 8bd3 0f3d
00000030: b0ed a73d ae46 11bc 5505 303d 127a e83c
00000040: f0a6 aabb 3447 783c 3e16 8f3a 2cda 753d
00000050: 1e0b f33d a1ac 8dbd 4826 d6bc 5b4c 78bd
00000060: f42d 303d da83 4e3d 0db6 5e3d d4e2 903c
00000070: 2b7b dc3c 73b6 27bd 1914 8bbc 2900 fcbc
00000080: cddb 92bd 16e7 8e3c 391b abbd 610f f33b
00000090: b3d8 413c 8c61 6c3d 44e1 c8bc 0bd1 94bc
000000a0: cd35 d23c 49e6 b7bc 9934 e33c 3be9 0dbc
000000b0: 4220 13bc 01d6 1dbc e6d6 b0bd 7408 b4bc
000000c0: 964d 483b d0e9 603c 5e85 e2bd e5e7 b13d
000000d0: b33a 6abc a395 4b3b 867c 453d b134 683c
000000e0: 88b1 373d 12ce a93c b532 9bbc 8e44 22bd
000000f0: 14b3 a23d 998d 77bc a92c 763d f242 02bc
00000100: 98d6 973c d2c9 dbbd 6466 a1bc ca19 983c
00000110: db4b d7bd f450 ef3d f628 193c 51af cc3c
00000120: 334b 9a3c b56a 47bb b8ed df3d da07 153d
00000130: 7f19 d63d 6532 33bd e4d5 f13c 5163 253c
00000140: 45da ebbc cb94 04bc f4a8 10bd b495 d43d
00000150: 24cf 69bd 261a d2bb 8829 26bd dcb2 3c3c
00000160: 0a13 ce3d e6ce eb3c e4e3 0d39 aeb5 2abc
00000170: e9e0 7a3d 1910 eebc c048 8fbc 3265 93bc
00000180: 1add 52bc e54f f73c e2fc 2fbc 0cf7 0bbd
00000190: 9f1b d73d 70f2 58bd fb52 323d 405d 073d
000001a0: 8c13 a3bc 5612 a9bc 49fe 87bc eaf6 813d
000001b0: 5aa5 1d3d 4955 80bd 41db d5bc eb8f 053c
000001c0: b092 e73a f99d 9e3c ceac a0bd 848a 5fbc
000001d0: 65ab 0b3d f0c1 3f3d 47af 81bc da2a 9c3c

fc2.weight f4 [84, 120]
-0.08095426 0.0026533448 -0.09230353 0.111484945 0.06355338 -0.03730242 -0.01842703 -0.052893333
0.080971695 0.0141576985 0.015634082 -0.017407108 0.004556066 -0.05049725 -0.0008517488 0.058162365
0.07200507 -0.092730604 0.0327329 0.06217329 0.011920361 0.00999107 -0.07914412 -0.041960966
-0.00840709 -0.058969468 0.0066678585 -0.041865963 -0.0840636 -0.042501923 -0.0083822375 0.008791177
0.093620814 -0.06504431 0.04667838 0.07852388 -0.046077665 -0.025284253 -0.08046089 -0.0032058347
0.012329784 -0.08616749 0.08610531 -0.0982913 -0.044781685 0.024590021 0.06905687 -0.004814071
0.032865185 -0.009923533 -0.01621692 -0.02333472 -0.07893858 0.05347454 0.048386015 0.079293884
-0.038392756 0.016712537 0.07831958 0.03741818 0.07613324 0.0010426216 0.03550515 0.08708267
0.042344682 -0.042152625 0.014713915 -0.05029238 -0.09111141 -0.017610729 -0.016513754 0.062489487
-0.06129854 -0.082322456 -0.004355016 0.023280742 -0.043449424 -0.09168882 -0.056853447 -0.017254801
0.0334881 0.07823123 -0.039081573 0.023370096 0.0012307601 -0.09188818 -0.013005638 -0.063534476
0.051861785 0.09209855 -0.09527534 -0.07846533 0.0077114413 0.097840175 -0.0055520064 -0.06483868
-0.027230987 -0.07878598 -0.010428016 0.07335638 0.080037884 -0.0712249 0.097643614 0.04651409
-0.04504289 0.06527968 -0.08712608 -0.004958764 0.078089826 0.0031458705 -0.048287973 -0.08397113
-0.053362966 -0.054948725 -0.054764308 -0.03230535 0.031989392 0.091386124 -0.010649486 0.09012273
0.08775522 0.028080232 0.07499941 -0.0076314574 0.009253052 0.03987625 -0.030246064 -0.112564415
-0.068390064 -0.06871324 0.02907271 -0.011965997 0.060795624 -0.036553096 0.07445367 0.092328586
-0.049935233 -0.08864153 -0.009267664 0.030032499 -0.08097301 -0.010088664 -0.022994814 -0.02625184
0.07428655 0.0039347983 0.00042359077 0.064953536 0.02707788 -0.06566596 -0.09713391 -0.03916483
0.052614156 0.017905945 0.036988664 -0.026384918 0.11946033 -0.024162933 -0.036068793 -0.070097014
-0.08455317 0.02621822 0.045488738 -0.10045937 0.06929984 -0.08849154 0.04083289 -0.08550848
0.019969743 -0.058966473 -0.039781537 -0.024091657 -0.05225162 0.06736645 -0.042208765 0.0742045
-0.032232706 0.060649794 0.009908795 -0.08036748 0.09530848 -0.0805061 0.0544472 -0.045493282
0.1027716 -0.012542847 0.08318661 0.1122154 -0.05088917 0.042248677 0.01333745 -0.06365864
0.07305599 0.016606482 0.013507959 -0.021226835 -0.048030596 -0.044172868 0.051707122 0.07531043
-0.07402511 -0.033266183 0.019635972 -0.067067735 0.030484274 -0.0885223 -0.003211183 0.05446582
0.09855855 -0.005954574 0.0860248 0.06916968 -0.030307598 0.05999921 -0.06488161 -0.03177999
0.09500121 0.019455861 0.036616746 -0.044093374 -0.07789302 -0.087401085 -0.059125464 0.059307475
0.015279325 0.013973285 -0.074517146 0.12911396 -0.09239828 -0.009530438 0.046490826 -0.00979085
0.11536011 -0.05744707 0.0009049712 0.022190353 0.1074063 0.03378091 -0.10804066 -0.082328424
0.0779169 -0.037806414 -0.08966114 -0.004898356 0.008768545 0.018600361 0.07406221 0.017422266
0.020667955 -0.017642565 0.04428492 0.004431157 0.08212889 -0.013714597 -0.05794173 0.0170411
00000000: 59cb a5bd bde3 2d3b a209 bdbd 3852 e43d
00000010: 4628 823d 6cca 18bd 48f4 96bc aea6 58bd
00000020: 7dd4 a53d b1f5 673c 0c13 803c 5a99 8ebc
00000030: 0d4b 953b 34d6 4ebd e547 5fba a93b 6e3d
00000040: 6577 933d 8be9 bdbd ef12 063d 6ba9 7e3d
00000050: 9e4d 433c 96b1 233c 5016 a2bd 43df 2bbd
00000060: e4bd 09bc f889 71bd 0d7e da3b a57b 2bbd
00000070: 8929 acbd 7f16 2ebd a755 09bc de08 103c
00000080: 45bc bf3d f435 85bd d431 3f3d 21d1 a03d
00000090: efbb 3cbd ec20 cfbc aec8 a4bd fb18 52bb
000000a0: dd02 4a3c 9578 b0bd fb57 b03d f34c c9bd
000000b0: 006d 37bd 0371 c93c b06d 8d3d 5bbf 9dbb
000000c0: a59d 063d 5096 22bc 59d9 84bc 7428 bfbc
000000d0: 8daa a1bd 1f08 5b3d 6a30 463d d564 a23d
000000e0: b941 1dbd bbe8 883c 0466 a03d ce43 193d
000000f0: beeb 9b3d 93a8 883a d96d 113d 6658 b23d
00000100: 9e71 2d3d 3ba8 2cbd a212 713c 62ff 4dbd
00000110: 9e98 babd 6044 90bc da47 87bc faf4 7f3d
00000120: 2e14 7bbd ad98 a8bd 86b4 8ebb 41b7 be3c
00000130: 06f8 31bd 59c7 bbbd 29df 68bd f159 8dbc
00000140: d12a 093d b237 a03d 0014 20bd a572 bf3c
00000150: 7551 a13a df2f bcbd 9915 55bc 5d1e 82bd
00000160: 066d 543d 2a9e bc3d b81f c3bd 6eb2 a0bd
00000170: 42b0 fc3b 6e60 c83d 9bed b5bb 24ca 84bd
00000180: 8513 dfbc 8b5a a1bd 45da 2abc df3b 963d
00000190: e7ea a33d 5cde 91bd 60f9 c73d 8f85 3e3d
000001a0: e57e 38bd 5ab1 853d 296f b2bd 217d a2bb
000001b0: 8fed 9f3d f32a 4e3b 9cc9 45bd 0ef9 abbd
000001c0: 2093 5abd ea11 61bd 8a50 60bd 9d52 04bd
000001d0: 4f07 033d a628 bb3d 2f7b 2ebc 4492 b83d
000001e0: 02b9 b33d 8408 e63c 4a99 993d 4e11 fabb
000001f0: 1d9a 173c 4755 233d 98c6 f7bc 2c88 e6bd
00000200: 1710 8cbd 87b9 8cbd e429 ee3c 070d 44bc
00000210: d504 793d b3b8 15bd 2a7b 983d c516 bd3d
00000220: e388 4cbd b189 b5bd 66d7 17bc b706 f63c
00000230: 2dd5 a5bd ec4a 25bc 9f5f bcbc 190e d7bc
00000240: 8c23 983d 7bef 803b 6415 de39 5c06 853d
00000250: 6ed2 dd3c e07b 86bd 25ee c6bd 4d6b 20bd
00000260: f181 573d 7daf 923c 6d81 173d 2f25 d8bc
00000270: 9ea7 f43d 58f1 c5bc dfbc 13bd 068f 8fbd
00000280: 362a adbd 98c7 d63c 6652 3a3d a4bd cdbd
00000290: 13ed 8d3d 0d3b b5bd 6340 273d 121f afbd
000002a0: 9697 a33c d486 71bd f7f1 22bd de5b c5bc
000002b0: cb05 56bd 6cf7 893d 19e3 2cbd 87f8 973d
000002c0: 7106 04bd eb6b 783d 8058 223c b597 a4bd
000002d0: 1831 c33d 62e0 a4bd 0704 5f3d 2a57 3abd
000002e0: eb79 d23d 8380 4dbc be5d aa3d 30d1 e53d
000002f0: 2a71 50bd f30c 2d3d 5285 5a3c 765f 82bd
00000300: 619e 953d 510a 883c 7d50 5d3c e6e3 adbc
00000310: bbbb 44bd 9cee 34bd d9ca 533d 5b3c 9a3d
00000320: 7a9a 97bd 1f42 08bd 9edb a03c cf5a 89bd
00000330: 28ba f93c 2e4b b5bd b672 52bb 8d17 5f3d
00000340: 11d9 c93d 961e c3bb c52d b03d d5a8 8d3d
00000350: a447 f8bc bbc1 753d a6e0 84bd bc2b 02bd
00000360: ff8f c23d e661 9f3c 71fb 153d 419b 34bd
00000370: 6086 9fbd 57ff b2bd 8b2d 72bd 65ec 723d
00000380: 2256 7a3c 35f0 643c 729c 98bd 7336 043e
00000390: 4f3b bdbd 8e25 1cbc 2a6d 3e3d cd69 20bc
000003a0: ec41 ec3d 9e4d 6bbd 973b 6d3a 8bc8 b53c
000003b0: d6f7 db3d da5d 0a3d 6c44 ddbd ce9b a8bd
000003c0: e592 9f3d e6da 1abd 43a0 b7bd 6382 a0bb
000003d0: f2a9 0f3c c95f 983c eead 973d 24b9 8e3c
000003e0: d84f a93c 2487 90bc 1b64 353d 3d33 913b
000003f0: 3133 a83d 30b3 60bc 4f54 6dbd c799 8b3c

fc2.bias f4 [84]
0.066000864 0.05984838 0.048962034 0.15254351 -0.02866579 -0.040175486 -0.18255475 0.08379569
0.07102461 0.06274999 -0.041718055 -0.039365444 0.09889888 0.09080385 -0.069745265 -0.08944826
-0.0054412317 -0.06336242 -0.014258328 -0.0351731 0.031638045 -0.08768094 0.070484735 0.10742819
0.049475554 -0.020580905 0.08948366 0.03428006 0.0032517093 -0.08168769 -0.0081427675 -0.032757398
-0.10213051 0.0030421414 0.04782843 -0.09748295 0.04217018 0.033271957 0.0940836 -0.09164057
-0.08291641 -0.0708457 -0.07786571 0.040618163 -0.031562686 -0.03628455 0.101793535 -0.030523753
-0.03138952 0.06065024 -0.05275049 0.056996573 0.029189944 -0.0069645415 -0.07833989 -0.059852503
0.0009973506 0.09788365 0.056106836 -0.065279104 -0.050753135 -0.0056420583 0.04439533 0.05032513
-0.07576085 -0.053655397 -0.03608953 -0.06800132 0.053744882 0.06574186 -0.08670437 0.1325427
0.046110295 0.052772142 0.054827746 0.024039723 -0.012146836 0.029639611 0.05335635 0.0063138017
-0.00094091776 -0.049890425 -0.13840662 0.0326731
00000000: 762b 873d 9323 753d 6a8c 483d 5e34 1c3e
00000010: 85d4 eabc 0d8f 24bd a2ef 3abe 139d ab3d
00000020: 5a75 913d 1183 803d 8de0 2abd a93d 21bd
00000030: 7f8b ca3d 5ef7 b93d 9bd6 8ebd a630 b7bd
00000040: 5c4c b2bb 28c4 81bd c39b 69bc ab11 10bd
00000050: e596 013d 1192 b3bd 4d5a 903d 5003 dc3d
00000060: e1a6 4a3d 4999 a8bc 3643 b73d 4069 0c3d
00000070: a11a 553b e04b a7bd 3e69 05bc 9f2c 06bd
00000080: cd29 d1bd aa5e 473b bee7 433d 24a5 c7bd
00000090: a3ba 2c3d 2d48 083d e7ae c03d 0dae bbbd
000000a0: 14d0 a9bd 8d17 91bd 0f78 9fbd 3b5f 263d
000000b0: e047 01bd 1c9f 14bd 2179 d03d f30c fabc
000000c0: 4c92 00bd 636c 783d e610 58bd 3d75 693d
000000d0: c01f ef3c cf36 e4bb aa70 a0bd e627 75bd
000000e0: 88b9 823a 3977 c83d 48d0 653d 0db1 85bd
000000f0: 85e2 4fbd 04e1 b8bb e1d7 353d b921 4e3d
00000100: 8128 9bbd c3c5 5bbd 9dd2 13bd 4744 8bbd
00000110: 9823 5c3d aba3 863d 1092 b1bd 46b9 073e
00000120: 26de 3c3d 9a27 583d 0f93 603d f4ee c43c
00000130: 8603 47bc c5ce f23c 308c 5a3d 02e4 ce3b
00000140: eca7 76ba e759 4cbd 77ba 0dbe 3ad4 053d

fc3.weight f4 [10, 84]
-0.12538338 -0.09107994 0.14169443 0.021003826 -0.051000323 -0.09163685 -0.17178307 0.023946863
0.13320173 0.13235489 -0.33013308 0.041347034 -0.19157015 -0.03196082 0.09777578 -0.10304106
0.15221727 -0.07826403 -0.21350783 -0.1264537 -0.11014808 0.042896092 0.03889843 -0.07239726
-0.10204669 0.18913044 -0.14547871 0.14372014 -0.10292808 0.109809354 0.010154698 0.22443624
-0.094956815 -0.15585409 -0.17067626 0.14227943 0.023583233 0.09193618 0.14592856 -0.08007394
-0.012876469 0.056285422 -0.2858611 0.08848235 -0.11131682 0.16529699 -0.115418196 -0.12036667
-0.21474129 -0.10968752 0.08495645 -0.15239577 -0.29957044 0.19424447 -0.23145257 0.110851295
0.12132049 -0.089991055 0.04190405 -0.057493553 -0.25583878 -0.15906212 0.3003536 -0.16124791
-0.07559238 -0.07033069 0.03173656 0.24263293 -0.032227136 0.009258115 -0.04673843 0.037415367
0.1635052 0.012169651 -0.048416175 0.17372271 0.28247258 0.06522277 -0.24828593 0.061112225
0.116286956 0.097682424 0.08773672 -0.22767656 -0.11943925 -0.13225146 0.08832179 -0.25561523
0.083902776 0.024507051 0.09245017 -0.22232391 -0.19648808 -0.08528419 0.09444716 0.05866933
-0.13112515 -0.24556348 -0.0038938993 0.16786915 -0.006447723 -0.05006664 -0.08860431 -0.19268318
0.044401344 0.03939805 -0.1476534 -0.24309881 0.01707406 -0.05930802 -0.087781444 0.16995417
0.08183871 -0.012977583 0.0065106456 0.22156338 0.028096864 -0.09855009 -0.05140079 0.17695408
0.08992317 -0.13759357 -0.14793542 0.15934676 0.042872757 0.21436486 -0.041398197 0.06800983
0.06846699 0.09041001 -0.13734995 -0.12642331 0.06809479 -0.17053515 -0.03203707 -0.13918093
0.13246152 0.010148649 -0.029249953 0.07997272 -0.012908943 -0.2470921 -0.056009043 0.029154724
0.046543267 -0.019339375 0.041659035 -0.07897154 0.0600839 -0.051213715 -0.13966317 0.26872236
0.03938614 -0.13352552 -0.0021460196 -0.10990432 0.038227133 -0.10161177 0.026912557 -0.051801775
0.28621823 -0.15384836 -0.1401163 -0.0025249708 0.08306061 0.18889453 0.24167618 -0.14314742
-0.0910779 0.09196147 0.024814319 -0.17447491 0.17063972 0.057390645 0.12007043 -0.09106125
-0.09679508 0.1406866 0.09637072 -0.07492593 -0.17994975 -0.22754559 -0.093135364 0.070533276
-0.058500297 -0.09265704 0.123505786 -0.025115997 0.015678182 0.039207406 -0.026622212 -0.09990587
-0.019043861 -0.102495745 0.22590193 0.106486395 0.14776361 -0.047589164 0.18548834 0.031911388
-0.07668428 0.14521743 0.1564447 0.060132716 0.051640727 -0.24049976 -0.14572579 -0.09701496
0.084616765 0.007301637 0.2095029 -0.0351599 0.07882685 -0.032083336 -0.13569453 -0.045309424
0.13880754 -0.0831495 -0.010642983 -0.09427128 0.16164483 0.06396647 -0.005414207 0.07099631
-0.0012291784 -0.116618715 0.12461999 0.16378517 0.2054945 0.038697276 -0.050500985 0.06991728
0.13208538 -0.09248312 0.09151804 -0.044658653 -0.040074177 0.06976875 0.037018836 -0.19195758
-0.22013931 -0.04689685 -0.16197968 -0.043052427 0.16808926 -0.13112767 -0.14948946 0.029492764
-0.08401848 0.16733256 0.21287572 0.12507744 -0.008727512 -0.120290704 -0.16201995 -0.18896216
00000000: 8064 00be 1f88 babd 5818 113e 3710 ac3c
00000010: b7e5 50bd 1aac bbbd e7e7 2fbe 362c c43c
00000020: 0966 083e 0a88 073e 3407 a9be 825b 293d
00000030: f72a 44be 59e9 02bd ab3e c83d 3107 d3bd
00000040: d8de 1b3e e448 a0bd cca1 5abe 147d 01be
00000050: 5195 e1bd d0b3 2f3d f653 1f3d 0445 94bd
00000060: dbfd d0bd 69ab 413e 5ff8 14be 5f2b 133e
00000070: f5cb d2bd bae3 e03d e45f 263c 9dd2 653e
00000080: b878 c2bd 3798 1fbe c2c5 2ebe b3b1 113e
00000090: a031 c13c 0949 bc3d 4c6e 153e cefd a3bd
000000a0: d3f7 52bc 8b8b 663d 635c 92be 3c36 b53d
000000b0: 13fa e3bd 9d43 293e 6060 ecbd cd82 f6bd
000000c0: 24e5 5bbe daa3 e0bd a6fd ad3d a30d 1cbe
000000d0: 4c61 99be 06e8 463e e701 6dbe 0106 e33d
000000e0: e176 f83d 3b4d b8bd 95a3 2b3d 5c7e 6bbd
000000f0: 4dfd 82be 2ee1 22be f2c7 993e 2c1e 25be
00000100: 2dd0 9abd 8909 90bd 32fe 013d c474 783e
00000110: 9a00 04bd 59af 173c cc70 3fbd db40 193d
00000120: e86d 273e 3763 473c 0a50 46bd 5ee4 313e
00000130: 3fa0 903e 8493 853d ab3e 7ebe d050 7a3d
00000140: db27 ee3d b90d c83d 4faf b33d 0b24 69be
00000150: 919c f4bd ed6c 07be 0ee2 b43d 00e0 82be
00000160: 38d5 ab3d 03c3 c83c 8456 bd3d e1a8 63be
00000170: 2c34 49be 7aa9 aebd 836d c13d 404f 703d
00000180: ac45 06be fe74 7bbe ca30 7fbb e4e5 2b3e
00000190: 6c47 d3bb ad12 4dbd 2d76 b5bd bd4e 45be
000001a0: 2fde 353d da5f 213d 7432 17be e5ee 78be
000001b0: e6de 8b3c f7ec 72bd c2c6 b3bd 7708 2e3e
000001c0: 0e9b a73d ee9f 54bc 4157 d53b 83e1 623e
000001d0: 652b e63c a1d4 c9bd a389 52bd 7333 353e
000001e0: a429 b83d 54e5 0cbe 627c 17be cc2b 233e
000001f0: 589b 2f3d 7682 5b3e 2891 29bd bd48 8b3d
00000200: 6c38 8c3d e228 b93d 77a5 0cbe 1d75 01be
00000210: 4875 8b3d c4a0 2ebe 4d39 03bd 7285 0ebe
00000220: fea3 073e 8546 263c 999d efbc bdc8 a33d
00000230: 0880 53bc b605 7dbe bd69 65bd e3d5 ee3c
00000240: 27a4 3e3d 9c6d 9ebc aaa2 2a3d d5bb a1bd
00000250: 891a 763d 79c5 51bd dd03 0fbe fa95 893e
00000260: 5c53 213d eaba 08be 3ca4 0cbb 8415 e1bd
00000270: 0e94 1c3d d519 d0bd b977 dc3c 192e 54bd
00000280: 328b 923e 6d8a 1dbe a67a 0fbe fb79 25bb
00000290: ae1b aa3d 916d 413e f679 773e 3d95 12be
000002a0: 0d87 babd 4c56 bc3d 6647 cb3c 8da9 32be
000002b0: 2ebc 2e3e 7412 6b3d 7ce7 f53d 527e babd
000002c0: 803c c6bd 2610 103e 035e c53d c472 99bd
000002d0: bf44 38be b601 69be c1bd bebd c073 903d
000002e0: 029e 6fbd f9c2 bdbd 9af0 fc3d 10c0 cdbc
000002f0: 886f 803c f297 203d d316 dabc 739b ccbd
00000300: df01 9cbc 4ae9 d1bd d652 673e 8a15 da3d
00000310: 584f 173e dbec 42bd a8f0 3d3e 84b5 023d
00000320: a60c 9dbd e1b3 143e 0a33 203e b94d 763d
00000330: 3a85 533d 9245 76be 2439 15be c8af c6bd
00000340: 8e4b ad3d 9242 ef3b ee87 563e d403 10bd
00000350: f96f a13d d169 03bd 82f3 0abe 6096 39bd
00000360: 9023 0e3e 494a aabd e85f 2ebc 4d11 c1bd
00000370: 3986 253e da00 833d a969 b1bb 8366 913d
00000380: 621c a1ba cbd5 eebd c438 ff3d 4db7 273e
00000390: 266d 523e 0981 1e3d 1fda 4ebd ca30 8f3d
000003a0: 6441 073e ca67 bdbd cf6d bb3d feeb 36bd
000003b0: d224 24bd ebe2 8e3d 10a1 173d 8790 44be
000003c0: 336c 61be e916 40bd 00de 25be be57 30bd
000003d0: 971f 2c3e 5546 06be c413 19be cf9a f13c
000003e0: e111 acbd 3a59 2b3e 18fc 593e 4d14 003e
000003f0: d7fd 0ebc f95a f6bd 8fe8 25be 4c7f 41be

fc3.bias f4 [10]
0.03614375 -0.40688962 -0.18876252 0.018709997 0.13916562 -0.18192677 0.109426744 0.23754372
0.08604769 0.009637825
00000000: 780b 143d d653 d0be f64a 41be b545 993c
00000010: 6f81 0e3e 034b 3abe 211b e03d a93e 733e
00000020: c539 b03d f8e7 1d3c
