Image_Classification_Pipeline（Supervised）/checkpoints/handgesture_cnnnet_sgd_Model_LastEpoch_5_TestLoss_0.0515_TestAcc_1.00.pth (torch, 250887 bytes, 10 tensors)

conv1.weight f4 [6, 3, 5, 5]
0	0x3dd8698d	0.10567007
1	0xbdb29377	-0.08719533
2	0x3d001645	0.031271238
3	0x3e9b8a6b	0.30379042
4	0x3d840fb5	0.064483084
5	0x3e213101	0.1574135
6	0xbd04fecf	-0.032469567
7	0x3e12b2be	0.14325997
8	0x3e5a4523	0.21315436
9	0xbd39621d	-0.045259584
10	0x3e32ab54	0.17448169
11	0xbbc09ee1	-0.005878315
12	0xbd8b7290	-0.068089604
13	0xbe6d4034	-0.23169023
14	0xbe6ef592	-0.23335865
15	0x3d455c40	0.04818368
16	0xbd815ee7	-0.06316929
17	0xbe7cca18	-0.24686468
18	0xbe629703	-0.22127919
19	0xbdde0779	-0.10841269
20	0xbca83c51	-0.020536574
21	0xbdabb2fc	-0.08383748
22	0xbde1bf2e	-0.11022793
23	0xbeb3cd6d	-0.35117665
24	0xbe231696	-0.15926585
25	0x3e077e18	0.13231695
26	0x3e22cf81	0.15899469
27	0x3ea5e988	0.32404733
28	0x3ed6df95	0.41967455
29	0x3ecf6d6f	0.4051318
30	0x3e751564	0.23933941
31	0x3e853156	0.26014203
32	0x3ebd5060	0.36975384
33	0x3e9cac56	0.30600232
34	0xbdceeb83	-0.10103514
35	0x3e6f31ed	0.23358889
36	0x3e6f3db0	0.23363376
37	0xbcfff078	-0.031242594
38	0xbdf24994	-0.1183044
39	0xbece780c	-0.40325963
40	0x3e928975	0.28620496
41	0xbda36744	-0.07978681
42	0xbe698423	-0.22804312
43	0xbf0079f0	-0.5018606
44	0xbee42a47	-0.44563505
45	0x3de9edbd	0.11422298
46	0xbe0855d1	-0.13313986
47	0xbe6f4b4f	-0.23368572
48	0xbf1af570	-0.6053076
49	0xbed31502	-0.41226965
50	0x3e0415f8	0.12899005
51	0x3e3846a6	0.179957
52	0x3f0a0241	0.5390969
53	0x3f476e4c	0.77902675
54	0x3f1a6e09	0.6032415
55	0x3ee953d1	0.4557176
56	0x3ea48c97	0.32138512
57	0x3ed58b87	0.41708013
58	0x3f2bd45e	0.6712092
59	0x3da48791	0.0803367
60	0x3ecbc31f	0.39797303
61	0x3ebc4488	0.36771035
62	0x3e05a70a	0.13052002
63	0xbdafdd5f	-0.08587145
64	0xbf094c80	-0.53632355
65	0x3e9663d5	0.2937304
66	0x3c8e0228	0.017335013
67	0xbed0549e	-0.40689558
68	0xbf4cbb21	-0.79973036
69	0xbf2ab38d	-0.6668022
70	0x3e22cd58	0.15898645
71	0xbe330ef1	-0.17486168
72	0xbed819ef	-0.42207286
73	0xbf58228d	-0.8442772
74	0xbf104a86	-0.56363714
75	0xbe248d9b	-0.16069643
76	0xbe000c63	-0.12504725
77	0xbdbd0cae	-0.09230934
78	0xbe6acd34	-0.22929841
79	0x39dc0012	0.00041961722
80	0xbe67bfca	-0.22631755
81	0xbe5aab10	-0.21354318
82	0xbdb4e798	-0.088332355
83	0xbdd91475	-0.10599605
84	0x3ce3b378	0.027795538
85	0xbe59201b	-0.21203654
86	0xbe34c324	-0.17652565
87	0x3ce5c0cd	0.028046036
88	0xbd8a4ffc	-0.06753537
89	0x3d383107	0.04496863
90	0xbd9e5ed9	-0.077329345
91	0xbdf54a22	-0.1197703
92	0xbc4deea5	-0.012569104
93	0xbc9e136b	-0.019296369
94	0xbdcb7670	-0.099346995
95	0xbdf60871	-0.12013329
96	0x3cd0de0c	0.025496505
97	0xbc0d2db2	-0.008616852
98	0xbdb8ea50	-0.090290666
99	0xbdad69cd	-0.084674455
100	0xbdfa9b20	-0.12236619
101	0xbe32cea8	-0.17461646
102	0xbd535a7e	-0.051599972
103	0xbd351602	-0.04421044
104	0xbd9f347f	-0.07773685
105	0xbe8427dd	-0.25811663
106	0x3cab1aeb	0.020886859
107	0xbd14ee29	-0.03635994
108	0x3d18b1dd	0.037279
109	0x3d54f564	0.051991835
110	0xbdd23426	-0.10263853
111	0x3d84befd	0.064817406
112	0x3df7d0c6	0.12100367
113	0xbd81a70e	-0.06330691
114	0x3d9572be	0.07297276
115	0xba9da08b	-0.0012025995
116	0x3df99426	0.1218646
117	0x3df6ee37	0.120571546
118	0xbd4bc4cd	-0.04974823
119	0xbcb59bb0	-0.022168964
120	0xbdb007ee	-0.085952625
121	0x3db8b8c4	0.09019616
122	0x3e375665	0.1790405
123	0xbd02881b	-0.03186808
124	0x3da2711a	0.07931729
125	0xbea9dfa6	-0.33178443
126	0xbe850011	-0.25976613
127	0xbdf3b648	-0.11900002
128	0xbbbb5ec8	-0.005718086
129	0x3e17be10	0.14818597
130	0xbe809c4c	-0.25119245
131	0xbd21a996	-0.03946837
132	0x3dc663b4	0.096869856
133	0x3d967901	0.073472984
134	0x3e22f77d	0.15914722
135	0xbd666b7a	-0.05625484
136	0x3dbf88ed	0.093522884
137	0x3dcfaafc	0.101400346
138	0xbc131c5f	-0.008978932
139	0x3cf4c89d	0.029880816
140	0xbdebf028	-0.115204155
141	0x3db596bb	0.0886664
142	0x3d6343b7	0.0554845
143	0x3e1578dd	0.14596887
144	0x3e28c8e1	0.16482879
145	0xba1ab1c4	-0.0005901123
146	0x3e4b650f	0.1986277
147	0x3e408aac	0.18802899
148	0x3e38bdb6	0.18041119
149	0x3e18a867	0.1490799
150	0xbca3a4ec	-0.019976102
151	0xbca5fd6f	-0.020262448
152	0xbe0c250c	-0.13686007
153	0x3e3b86cb	0.18313138
154	0x3d4d3314	0.05009754
155	0x3d5c18f0	0.05373472
156	0xbe5104f9	-0.20412053
157	0xbe9b0806	-0.3027956
158	0x3e025bd7	0.12730347
159	0x3e24f4a1	0.16108944
160	0x3ddb0776	0.106947824
161	0xbd1252de	-0.03572356
162	0xbe789aa0	-0.24277735
163	0xbca74544	-0.02041877
164	0x3e19a0f5	0.15002806
165	0x3e62d836	0.2215279
166	0xbd317df1	-0.043332998
167	0xbe6ed5dc	-0.23323768
168	0xbe4d5b17	-0.2005428
169	0x3de5776f	0.11204421
170	0x3e042616	0.12905154
171	0x3ded2f08	0.11581236
172	0xbde58d7c	-0.11208627
173	0xbcb5b21f	-0.022179661
174	0x3e697c75	0.22801383
175	0x3dd09c04	0.101860076
176	0xbdef1686	-0.11674218
177	0xbe591244	-0.21198374
178	0x3db135e5	0.08652858
179	0x3e6871de	0.22699687
180	0x3db0023c	0.08594176
181	0xbe767cf6	-0.24071106
182	0xbf0195d6	-0.50619256
183	0xbc67c4f4	-0.014146078
184	0x3e0b3106	0.1359292
185	0x3e9ad285	0.3023874
186	0xbe8b919b	-0.27259526
187	0xbf0b4ab9	-0.5441089
188	0xbe1ad8c7	-0.15121756
189	0x3e457ad8	0.19285142
190	0x3e87fecc	0.26561582
191	0xbdcc461c	-0.0997431
192	0xbed4884b	-0.41510233
193	0xbe2e80c7	-0.17041312
194	0x3e9c0ba8	0.30477643
195	0x3e012e60	0.12615347
196	0x3ded3bae	0.115836486
197	0xbe23204b	-0.15930288
198	0x3ba173a5	0.004927116
199	0x3db28256	0.08716266
200	0x3c2bf59d	0.0104955705
201	0xbe9dec15	-0.3084418
202	0xbe372245	-0.17884167
203	0x3dc9ef74	0.09860125
204	0x3e3bfe55	0.18358739
205	0x3df5287d	0.11970613
206	0xbe9b42bc	-0.30324352
207	0xbf065260	-0.52469444
208	0xbc384064	-0.011245821
209	0x3e85d520	0.26139164
210	0x3e716a1e	0.23575637
211	0xbe5551b0	-0.20831943
212	0xbf330dd0	-0.6994295
213	0xbe008d22	-0.12553838
214	0x3ebe90ef	0.3721995
215	0x3eb6f679	0.3573492
216	0xbcc6089e	-0.02417403
217	0xbf163420	-0.58673286
218	0xbe9a9167	-0.30189058
219	0x3eb27b80	0.34859848
220	0x3e285a67	0.16440736
221	0x3e117784	0.14205748
222	0xbee2f361	-0.44326308
223	0xbe9038c7	-0.28168318
224	0x3e7575c4	0.23970705
225	0xbe899e43	-0.26878557
226	0x3e1e1dca	0.15441051
227	0x3ee84e9c	0.45372474
228	0x3ec53cb7	0.38522884
229	0x3ddf53b3	0.10904636
230	0xbeb44b37	-0.35213634
231	0xbe0386b8	-0.1284436
232	0x3eec0f30	0.46105337
233	0x3e918bdd	0.2842702
234	0x3b83941e	0.0040154597
235	0xbe89d436	-0.26919717
236	0xbe60e9f3	-0.21964245
237	0x3eaf4ab9	0.34236696
238	0x3ea5f413	0.32412776
239	0xbd230541	-0.039799932
240	0xbe63ecd7	-0.22258316
241	0xbdb8c31b	-0.090215884
242	0x3e4c85bd	0.19972892
243	0x3e0dae14	0.13835937
244	0xbcb41ab6	-0.021985393
245	0x3d13caa7	0.036081936
246	0xbdb71f9c	-0.08941576
247	0x3cd215a4	0.025645085
248	0x3d8f8e34	0.07009545
249	0x3e2a8724	0.16653115
250	0xbe566ad7	-0.20939194
251	0x3dc1008a	0.09423931
252	0x3ec71f4c	0.38891065
253	0x3e8cd424	0.275056
254	0xbdcd7bdc	-0.1003339
255	0xbf11d8b6	-0.569713

conv1.bias f4 [6]
0	0xbde25d11	-0.11052907
1	0xbe426403	-0.18983464
2	0x3ead6efb	0.33873734
3	0x3ed57e96	0.4169814
4	0x3ddad8a6	0.10685854
5	0x3d51dac2	0.051234014

conv2.weight f4 [16, 6, 5, 5]
0	0xbd1fecc4	-0.039044157
1	0xbd730ce0	-0.05933845
2	0x3d85f37b	0.06540581
3	0xbd8e2d6d	-0.06942258
4	0x3d554dce	0.052076153
5	0xbda1d888	-0.07902628
6	0x3d63178f	0.05544239
7	0x3c076974	0.008264888
8	0xbd229b92	-0.039699145
9	0x3d8643e6	0.06555919
10	0xbdc5f0f9	-0.096651025
11	0xbd2566b2	-0.04038114
12	0xbcdfc1ba	-0.027314056
13	0xbd951f94	-0.07281414
14	0xbcc8e014	-0.024520911
15	0xbd780af4	-0.06055732
16	0x3d52e954	0.05149205
17	0x3c8d5614	0.01725296
18	0x3ca618b0	0.020275444
19	0x3c105565	0.008809422
20	0xbdb20d42	-0.08693935
21	0x3c8680eb	0.016418895
22	0x3bfb8c86	0.007676664
23	0xbdba7759	-0.09104795
24	0xbbbeece9	-0.0058265817
25	0xbd9cdc13	-0.07659163
26	0xbbbc2881	-0.005742133
27	0x3ba2273f	0.004948526
28	0x3d29e422	0.04147733
29	0xbd893691	-0.06699861
30	0xbdc52110	-0.09625447
31	0x3d66a226	0.05630698
32	0x3c81392f	0.015774338
33	0x3c436c52	0.011927681
34	0x39ca641a	0.00038603024
35	0xbd5efda6	-0.054441117
36	0x3d14f975	0.036370713
37	0xbdb55501	-0.08854104
38	0xbc508e8e	-0.0127293
39	0x3bd38b8c	0.0064558443
40	0x3d079582	0.033101566
41	0xbd3ed5f0	-0.046590745
42	0xbd937541	-0.07200099
43	0x3bf13107	0.007360581
44	0xbdb992cf	-0.09061205
45	0xbdabe73d	-0.083937146
46	0xbda4a7bd	-0.08039806
47	0xbd64e215	-0.05587967
48	0xbd0bf992	-0.034173556
49	0xbd8ae540	-0.06782007
50	0xbd25080d	-0.04029088
51	0xbda6d733	-0.08146515
52	0x3d88fae6	0.0668848
53	0x3bd99a7d	0.006640731
54	0xbd966c82	-0.07344915
55	0x3bda97f9	0.0066709486
56	0xbd9a43af	-0.07532441
57	0x3d9ba7bc	0.07600352
58	0x3d902f21	0.07040239
59	0xbdc57c42	-0.09642841
60	0xbd929873	-0.07157984
61	0xbd8c86df	-0.06861662
62	0xbd042ad5	-0.03226741
63	0x3cf3157d	0.029673332
64	0xbdc44567	-0.0958355
65	0xbd84c136	-0.064821646
66	0x3cd12372	0.025529597
67	0xbcdfacea	-0.027304132
68	0xbc96c843	-0.01840604
69	0xbd9acde8	-0.07558805
70	0x3d2ada9c	0.04171239
71	0x3bbae6dc	0.00570379
72	0xbd266636	-0.04062482
73	0xbd2377ae	-0.039909057
74	0x3c1dae34	0.009624053
75	0xbc999620	-0.018748343
76	0xbac29c13	-0.0014847539
77	0xbbef1510	-0.007296212
78	0xbc664660	-0.014054865
79	0xbd74aa78	-0.059732884
80	0x3cdce4a5	0.026964495
81	0xbd2131dd	-0.039354194
82	0xbda4671f	-0.08027481
83	0x3d94d5a6	0.07267313
84	0x3d7171f3	0.05894656
85	0xbd933ced	-0.07189355
86	0xbd90ca5e	-0.070698485
87	0xbd57e579	-0.052709077
88	0xbd899c41	-0.06719256
89	0x3d3a78b8	0.045525283
90	0xbd53e969	-0.05173627
91	0x3d68636c	0.05673544
92	0xbd6fb58c	-0.058522746
93	0x3a3aecc2	0.00071306166
94	0xbb78b1f2	-0.003794786
95	0xbcb5d7a3	-0.02219755
96	0x3d588ca5	0.052868504
97	0xbda0275c	-0.07820007
98	0xbdb92c9c	-0.09041712
99	0xbc0beb10	-0.00853993
100	0x3d81d26b	0.06338962
101	0xbd0a7ddf	-0.033811446
102	0xbd4b6f6a	-0.0496668
103	0xbd51fee7	-0.051268484
104	0xbd10db85	-0.0353656
105	0xbce84950	-0.02835527
106	0xbc927379	-0.017877327
107	0xbd3d8b76	-0.04627558
108	0x3cd0b915	0.025478879
109	0x3a3d1fae	0.00072144985
110	0xbd550f22	-0.052016385
111	0xbd38c551	-0.04511005
112	0x3c891327	0.016732765
113	0xbab2c9a4	-0.0013640416
114	0x3d6ac656	0.057318054
115	0xbc24a58b	-0.010049234
116	0xbd82fa42	-0.06395389
117	0xbd761168	-0.060075194
118	0xbccae8d6	-0.024769228
119	0xbc96cf79	-0.018409478
120	0x3c28bef6	0.010299435
121	0xbc80a8f6	-0.015705567
122	0x3cfc2b30	0.030782312
123	0xbcdb7c7b	-0.026792755
124	0x3d70c9e7	0.0587863
125	0x3c7e2dcd	0.015513849
126	0xbcda428c	-0.02664306
127	0x3d8e87b8	0.0695948
128	0x3c8c2f08	0.01711227
129	0xbd6c30fc	-0.057663903
130	0xbd4547e3	-0.04816426
131	0x3d44d5c4	0.048055425
132	0x3d0d13de	0.034442775
133	0x3d75b2da	0.05998502
134	0xbc03923d	-0.008030471
135	0x3d59b53c	0.053151354
136	0x3d18577c	0.037192807
137	0x3cb49978	0.022045836
138	0xbcaf1f21	-0.021377148
139	0x3d9ae931	0.07564009
140	0x3c59c4a1	0.013291509
141	0xbcbcf29e	-0.023064908
142	0xbb7f16c3	-0.003892348
143	0x3d9e0437	0.07715648
144	0x3d5669d3	0.052347016
145	0xbc0e34e8	-0.008679606
146	0x3d9dd67e	0.07706927
147	0x3d07b219	0.03312883
148	0xbd39b63f	-0.04533982
149	0xbd9a0a60	-0.0752151
150	0xbdfcdef2	-0.12347211
151	0xbe972acb	-0.29524836
152	0xbec24f87	-0.379513
153	0xbe40cb50	-0.18827558
154	0xbe36195c	-0.17783111
155	0xbe61d478	-0.22053707
156	0xbec63417	-0.38711616
157	0xbe9b65f3	-0.3035122
158	0xbe31e7c3	-0.17373566
159	0xbcf33a39	-0.029690849
160	0xbd78d89f	-0.06075346
161	0xbe106736	-0.14101872
162	0xbe885a97	-0.26631615
163	0xbec5de34	-0.3864609
164	0xbeaa1a0b	-0.33222994
165	0x3e84c3a7	0.2593052
166	0x3e6b17cc	0.22958297
167	0x3d2b2d4b	0.04179124
168	0xbe1fba98	-0.15598524
169	0xbe05cf54	-0.1306737
170	0x3eb72dc2	0.35777098
171	0x3e8f6f53	0.2801462
172	0x3eac6b00	0.33675385
173	0x3e9bb3df	0.30410668
174	0x3e766863	0.24063258
175	0xbdd41ade	-0.10356687
176	0xbcce322b	-0.025170406
177	0xbdcbc788	-0.09950167
178	0xbe07bcd6	-0.13255629
179	0xbd6f7efc	-0.05847071
180	0xbd2e564d	-0.04256277
181	0xbc9c194e	-0.019055035
182	0xbdc03ed5	-0.09386984
183	0xbe02678a	-0.1273481
184	0xbde1ed64	-0.11031607
185	0xbd17c9f1	-0.03705782
186	0x3dd87ddc	0.10570881
187	0x3db848c6	0.089982554
188	0xbc81a06d	-0.015823567
189	0xbdb1af75	-0.08676044
190	0xbde2029d	-0.11035655
191	0x3d9be3cd	0.07611809
192	0xbd91493e	-0.07094048
193	0xbd73ebbc	-0.059550986
194	0xbe1a5f9f	-0.15075539
195	0xbde01a26	-0.109424874
196	0xbe32fc9e	-0.17479178
197	0xbdc44179	-0.095828004
198	0xbdf15701	-0.11784173
199	0xbe12cd5f	-0.14336155
200	0xbd5df7dd	-0.05419146
201	0xbd8cc6fe	-0.06873892
202	0xbdf22da3	-0.11825111
203	0x3de6648c	0.112496465
204	0x3e62f61f	0.221642
205	0x3d1e9379	0.03871486
206	0xbe38d776	-0.18050942
207	0xbe58cded	-0.21172304
208	0x3da347d6	0.07972686
209	0x3e963c95	0.29343095
210	0x3dbca589	0.09211261
211	0xbe79e88a	-0.24405113
212	0xbe8e6dd6	-0.27818173
213	0xbdf0b15f	-0.11752581
214	0x3e89d795	0.2692229
215	0x3d7babf6	0.06144329
216	0xbe3f4e17	-0.18682133
217	0xbe0c2e77	-0.136896
218	0xbdfcac76	-0.12337582
219	0x3de04765	0.109511174
220	0x3d90879b	0.07057115
221	0xbd0b44f2	-0.0340013
222	0x3cf6f285	0.03014494
223	0xbdf0f00e	-0.11764537
224	0x3bcf2298	0.0063212626
225	0xbd5a13f5	-0.05324169
226	0xbdfa113f	-0.12210321
227	0xbeab1dc6	-0.33421153
228	0xbe4270c8	-0.18988335
229	0x3eddf52c	0.43351114
230	0xbd8f531f	-0.06998276
231	0xbe266a96	-0.16251597
232	0xbe995758	-0.2994945
233	0xbec0b27c	-0.37636173
234	0x3e31207c	0.17297548
235	0xbd29d763	-0.041465174
236	0xbe0d3c8d	-0.1379263
237	0xbe8b3950	-0.27192163
238	0xbea739e1	-0.32661346
239	0xbe6bcf06	-0.23028192
240	0x3d95c5a5	0.07313088
241	0x3cf1b17c	0.029503576
242	0xbd601cd1	-0.05471498
243	0xbcbc89c2	-0.023014907
244	0xbe974f8c	-0.29552877
245	0xbdae81c6	-0.08520846
246	0x3e2d9f39	0.1695527
247	0x3e96286c	0.29327714
248	0x3dd426cc	0.103589624
249	0xbdb134f3	-0.086526774
250	0x3d4691d2	0.04847891
251	0x3d8ce6f8	0.06879991
252	0x3d5d45d2	0.054021664
253	0xbd767f0c	-0.060179755
254	0xbc65154c	-0.013982128
255	0xbc74c2ff	-0.014939069

conv2.bias f4 [16]
0	0xbcd7f172	-0.026360247
1	0x3d833c50	0.06407988
2	0xbddf89bc	-0.109149426
3	0xbe55db23	-0.20884375
4	0xbd13ed7f	-0.036115166
5	0xbd825423	-0.06363704
6	0xbe2aad52	-0.16667679
7	0xbdeb5dcd	-0.114925005
8	0xbe4ea32a	-0.2017943
9	0xbd8d2044	-0.0689092
10	0xbef627f8	-0.4807737
11	0xbde21d07	-0.11040693
12	0x3d28ffc2	0.041259535
13	0x3da3e724	0.08003071
14	0x3d1165b5	0.035497386
15	0xbe9d919d	-0.30775157

fc1.weight f4 [120, 400]
0	0x3c221210	0.009892002
1	0xbcfee08a	-0.031112928
2	0xbd2a4029	-0.041565094
3	0x3c4c3752	0.012464361
4	0x3d0f1a75	0.03493734
5	0xbb416bc0	-0.0029513687
6	0x3cb881b0	0.022522777
7	0x3cbfaf5c	0.023399048
8	0x3d21fc44	0.03954722
9	0xbd356515	-0.044285852
10	0xbc93398c	-0.017971776
11	0x3c04b837	0.008100561
12	0x3d5506cb	0.05200843
13	0x3d38c264	0.04510726
14	0xbd19e903	-0.037575733
15	0xbcfb2f96	-0.03066234
16	0x3d3ed165	0.046586413
17	0xbab47305	-0.0013767189
18	0xbcafe2d7	-0.02147047
19	0xbcd3319b	-0.02578049
20	0x3d005525	0.0313312
21	0x3cdda5d0	0.027056605
22	0x3d36bd52	0.044614144
23	0xbac98912	-0.0015375933
24	0xbc2e04f9	-0.010621303
25	0x3d32b46f	0.043629106
26	0x3d968296	0.07349126
27	0xbcc38513	-0.023867166
28	0xbcc0da12	-0.023541484
29	0xbd7e2e99	-0.062056158
30	0xbc1c2e04	-0.009532455
31	0x3d2d06b3	0.042242717
32	0xbd6ef347	-0.058337476
33	0xbde218bf	-0.11039876
34	0xbdcac4de	-0.09900831
35	0xbc641219	-0.01392033
36	0x3d21de75	0.039518792
37	0xbc9d4604	-0.019198425
38	0xbc069f98	-0.008216761
39	0xbd1c273a	-0.038123347
40	0xbce24543	-0.027620917
41	0xbbef57eb	-0.007304182
42	0x3d1f5d3d	0.03890728
43	0xbd81ad76	-0.06331913
44	0xbb0d0e20	-0.0021523312
45	0xbc7bab7d	-0.01536071
46	0x3d80e1d4	0.06293073
47	0x3d115076	0.035477124
48	0xbd055af9	-0.03255746
49	0x3d236893	0.03989465
50	0x3d5d85be	0.054082625
51	0xbd61b037	-0.055099692
52	0x3d7c5917	0.0616084
53	0x3db3fe08	0.08788687
54	0x3d54f9d8	0.051996082
55	0xbd185c5a	-0.03719745
56	0x3ce4f184	0.027947195
57	0x3d6293bc	0.05531667
58	0xba8ddc2e	-0.0010823065
59	0x3d80afbe	0.0628352
60	0xbd505e8f	-0.050871428
61	0xbcc408e3	-0.023930019
62	0x3bc57b7d	0.006026684
63	0xbd19be94	-0.037535265
64	0x3c8d652b	0.017260155
65	0x3d241585	0.040059585
66	0x3c8971e1	0.016777935
67	0x3ce481f9	0.027894007
68	0xbd39c1bb	-0.04535077
69	0xbd27e143	-0.04098631
70	0xbc24c8e5	-0.010057663
71	0x3c333529	0.010937967
72	0xbcf7b17b	-0.030235996
73	0xbd81d28f	-0.06338989
74	0xbe02f1a3	-0.1278749
75	0x3d3a4b6d	0.045482088
76	0x3c9fbc26	0.019498896
77	0x3c819861	0.01581973
78	0x3db37bf4	0.087638766
79	0x3dc9d8a3	0.09855773
80	0x3c9a7377	0.018853886
81	0x3d4dccf0	0.05024427
82	0xbd3e824b	-0.046510976
83	0xbc4491c2	-0.011997642
84	0x3d8380c0	0.064210415
85	0xbc4883c5	-0.012238448
86	0x3d28e108	0.04123023
87	0xb9c831e4	-0.00038184144
88	0xbc241fb3	-0.010017323
89	0xbd9aaa9b	-0.07552072
90	0xbcf5db79	-0.03001188
91	0x3dac5f0a	0.08416565
92	0x3d7b509f	0.061356183
93	0x3c0d1ccb	0.008612822
94	0xbdf4d333	-0.119543456
95	0xbd054839	-0.03253958
96	0xbd18445c	-0.037174568
97	0xbd0dd94d	-0.034631062
98	0xbcc92cd7	-0.024557514
99	0xbda897c5	-0.08232073
100	0x3d32a92b	0.043618362
101	0xbccfa90e	-0.025349166
102	0x3c34227e	0.010994552
103	0xbcfdd4c4	-0.030985244
104	0xbc243e80	-0.010024667
105	0xbd108507	-0.035283115
106	0xbc9c5feb	-0.019088706
107	0x3d0069f9	0.031351063
108	0xbcd81235	-0.02637587
109	0xbd098674	-0.03357549
110	0xbb2cac9a	-0.0026347996
111	0xbd0a848c	-0.033817813
112	0xbcf3a104	-0.029739864
113	0xbc76258c	-0.0150236
114	0xbc1682bb	-0.009186442
115	0xbc12b4ae	-0.00895421
116	0x3bcd20fc	0.0062600356
117	0xbd2d8abc	-0.042368636
118	0xbbbb90b2	-0.005724036
119	0xbd5fda13	-0.05465133
120	0x3ceb5c0e	0.028730419
121	0x3d35e680	0.044409275
122	0xbd211aa9	-0.039332066
123	0xbd0d8304	-0.034548774
124	0x3d20b260	0.03923261
125	0x3d608c00	0.054821014
126	0x3dda49b3	0.10658588
127	0x3d97308a	0.07382305
128	0x3e0b7488	0.13618672
129	0x3d8d9a1b	0.06914159
130	0x3d3ecf4d	0.046584416
131	0x3d4e23fd	0.05032729
132	0x3b1cb8be	0.0023913826
133	0x3d9a70e2	0.07541062
134	0xbcc9a5a1	-0.02461511
135	0x3ca78dd2	0.020453367
136	0xbd78128c	-0.060564563
137	0xbb965200	-0.004587412
138	0xbddad92c	-0.106859535
139	0xbe0a920f	-0.1353228
140	0xbd2334fe	-0.03984546
141	0xbc887854	-0.01665894
142	0x3d0fa50a	0.035069503
143	0xbcee6598	-0.029101178
144	0xbd68ae2e	-0.056806736
145	0xbd8cc5ad	-0.06873641
146	0xbd34ee6c	-0.04417269
147	0x3c9c3f15	0.019073049
148	0xbb04b25f	-0.002024792
149	0x3bc81c64	0.0061069
150	0x3d1fe4be	0.039036505
151	0x3cd0c138	0.025482759
152	0xbd2b414a	-0.04181031
153	0xbcb97198	-0.022637174
154	0x3c32d04c	0.01091392
155	0x3c07c1da	0.008285964
156	0xbc6b6320	-0.014366895
157	0xbd3fc949	-0.04682282
158	0xbd819f74	-0.063292414
159	0x3d40f5fb	0.047109585
160	0x3cc9268a	0.02455451
161	0xbc257606	-0.01009894
162	0xbcc70612	-0.024294887
163	0xbcaf4e72	-0.02139971
164	0xbb9292b5	-0.0044730552
165	0xbd710a27	-0.058847573
166	0x3c9c522d	0.019082153
167	0xbd0ed2de	-0.034869067
168	0xbd020288	-0.031740695
169	0x3d98c519	0.074594684
170	0x3c6e4a71	0.014544115
171	0x3d24e2c6	0.04025533
172	0x3b1744da	0.002308181
173	0x3c1c16f9	0.0095269615
174	0x3ca2efaa	0.019889671
175	0x3d17a706	0.03702452
176	0xbd0d470f	-0.034491595
177	0xbd7bd5e5	-0.061483283
178	0xbc2b30d1	-0.01044865
179	0x3dec1ef0	0.11529338
180	0xbadf8fcc	-0.0017056405
181	0xbd36a6a3	-0.04459251
182	0xbc32fe78	-0.010924928
183	0x3d2836ab	0.04106776
184	0x3e17239f	0.14759682
185	0x3d58310d	0.052781153
186	0x3d47e34a	0.048800744
187	0xbd979c20	-0.07402825
188	0x3d58931f	0.05287468
189	0x3de08985	0.1096373
190	0xbcab868c	-0.02093818
191	0xba614c0e	-0.0008594402
192	0x3a0d17e9	0.0005382286
193	0x3d1e3ba6	0.038631104
194	0x3c56184e	0.013067318
195	0xbc5762b7	-0.013146094
196	0xbcb1cb2a	-0.021703321
197	0xbc7726bc	-0.015084919
198	0xbd048eec	-0.032362863
199	0xbdd9c0f7	-0.10632508
200	0x3d008e74	0.031385854
201	0xbd576a9f	-0.052591916
202	0xbd610b9c	-0.054942712
203	0xbc86f23f	-0.016472934
204	0x3b11a92e	0.0022226083
205	0x3d085ad2	0.033289738
206	0x3c897322	0.016778532
207	0xbc7b5844	-0.015340868
208	0xbbd876be	-0.006605952
209	0x3d67f6db	0.056631904
210	0xbd2a8636	-0.0416319
211	0xbc9a2c1e	-0.018819865
212	0x3c9ffb41	0.019528987
213	0xbd3876e9	-0.045035277
214	0x3d12eba8	0.03586927
215	0x3d09338f	0.033496436
216	0x3c6dfe29	0.014525929
217	0xbd11e962	-0.03562296
218	0xbd131833	-0.03591175
219	0x3c1ad143	0.009449306
220	0xbcb44564	-0.022005744
221	0x3c9569b9	0.018238889
222	0x3c347726	0.011014735
223	0xbb9f54c9	-0.004862402
224	0x3cf4e018	0.029892012
225	0xbd3b7470	-0.04576534
226	0xbd31155c	-0.04323326
227	0x3d177f79	0.0369868
228	0xbc16588e	-0.0091763865
229	0xbd4246a3	-0.047430646
230	0xbc902dbd	-0.017599935
231	0x3d116804	0.035499588
232	0xbbfd16da	-0.0077236714
233	0x3cc4f0ba	0.024040569
234	0x3ce8c3cd	0.028413678
235	0xbc6e2a86	-0.014536506
236	0x3cbfdc93	0.023420608
237	0x3c7a0269	0.015259364
238	0xbd00f9e5	-0.031488318
239	0xbc213eca	-0.00984163
240	0x3cf7b031	0.030235382
241	0x3c9ff91d	0.019527966
242	0x3be3c28c	0.006950682
243	0xbba2ad64	-0.0049645174
244	0xbd0b7475	-0.03404661
245	0xbc972b87	-0.018453373
246	0x3d02630f	0.03183275
247	0xbad193d4	-0.0015989491
248	0xbcf9bab9	-0.030484544
249	0x3bd8d74d	0.0066174627
250	0x3c37adab	0.011210839
251	0x3d2f691e	0.042824857
252	0xbd8faa3b	-0.07014891
253	0xbdbdc5db	-0.092662536
254	0xbc11e5ba	-0.008904869
255	0xbc3931f0	-0.01130341

fc1.bias f4 [120]
0	0x3d11c937	0.035592284
1	0xbd56b98c	-0.052423045
2	0xbd680287	-0.056643035
3	0x3c3b80b8	0.011444263
4	0xbca7317d	-0.02040934
5	0x3cc98de7	0.024603797
6	0xbdfd2f3a	-0.123625234
7	0xbcf76d2a	-0.03020342
8	0xbd45c712	-0.04828555
9	0xbd41d8d3	-0.04732592
10	0x3d3714aa	0.04469744
11	0x3ccb7638	0.024836645
12	0x3da27bba	0.07933755
13	0xbc057c1d	-0.008147267
14	0x3d04cc4b	0.03242139
15	0x3d18490c	0.037179038
16	0xbc43e5c5	-0.011956637
17	0x3c32bbf6	0.010909071
18	0x3b9cf79f	0.004790261
19	0x3d663484	0.056202427
20	0x3e2af869	0.16696323
21	0xbd83199c	-0.06401369
22	0xbc5f78f1	-0.0136396745
23	0xbdb65227	-0.08902388
24	0x3c826237	0.015915973
25	0x3d692ebb	0.05692933
26	0x3d8f799c	0.07005617
27	0x3c1f25ae	0.009713573
28	0x3d0268be	0.03183817
29	0xbc9fe33d	-0.019517535
30	0xbaf08745	-0.001835086
31	0xbd6fe2ad	-0.058565784
32	0xbd8dd4ce	-0.06925355
33	0x3d0fe951	0.035134617
34	0xbd9faa0e	-0.07796107
35	0x3a95adb9	0.0011419571
36	0x3cfaa1f3	0.030594802
37	0x3d5a2e1e	0.053266637
38	0xbd128499	-0.035770986
39	0xbc5371c7	-0.012905545
40	0x3d11f3e9	0.035633
41	0xbc78d508	-0.015187509
42	0x3c58b928	0.013227738
43	0xbc7506c5	-0.014955227
44	0xbca5c542	-0.020235661
45	0x3c18872b	0.00930957
46	0xbdc95f1d	-0.098325945
47	0xbcac5c52	-0.021040116
48	0x3c7270d5	0.014797409
49	0x3bce69f4	0.0062992517
50	0xbdd05df8	-0.10174173
51	0x3db2afbb	0.08724924
52	0xbc8f783d	-0.017513389
53	0xbba56115	-0.0050469735
54	0x3d9f08fa	0.07765384
55	0x3c7b5f1b	0.015342499
56	0x3d6ec76d	0.058295656
57	0xbb03b264	-0.0020095343
58	0xbd040f2b	-0.032241028
59	0xbd50fec6	-0.05102422
60	0x3d8a6c5e	0.06758951
61	0xbd026d86	-0.03184273
62	0x3d674b7a	0.056468464
63	0x3b29b80e	0.0025897059
64	0x3c7d6a37	0.015467218
65	0xbdd8e1e7	-0.105899625
66	0xbc53f63f	-0.012937128
67	0x3ca91bfe	0.02064323
68	0xbdf1982b	-0.11796602
69	0x3e09f406	0.13471994
70	0xbbd618dd	-0.0065337257
71	0x3c87b17a	0.01656412
72	0x3ccd9462	0.025095169
73	0xbb78ff64	-0.0037994022
74	0x3ded3229	0.11581833
75	0x3c08ef93	0.0083579
76	0x3db13bc9	0.08653981
77	0xbd3a00b4	-0.045410827
78	0x3d533abd	0.05156969
79	0x3ca785c9	0.020449536
80	0xbc9b3f63	-0.018951124
81	0xbcca543e	-0.024698373
82	0xbd130496	-0.035893045
83	0x3db84894	0.08998218
84	0xbda5303f	-0.08065843
85	0xbbe2598d	-0.006907648
86	0xbcd619f1	-0.026135417
87	0x3c8acf01	0.01694441
88	0x3de09a6e	0.10966955
89	0x3d1da012	0.038482733
90	0xb98636af	-0.00025599214
91	0x3ad524e4	0.0016261605
92	0x3d8e4c58	0.06948155
93	0xbd125fc4	-0.03573586
94	0xbbd4aa38	-0.006490018
95	0xbc212741	-0.009836019
96	0xbc823301	-0.015893461
97	0x3d26fbd0	0.04076749
98	0xbc273e28	-0.01020769
99	0xbd021de4	-0.031766787
100	0x3de78da9	0.113063164
101	0xbd012292	-0.03152711
102	0x3d590bdf	0.052989837
103	0x3d42f4ae	0.047596626
104	0xbc3a4b18	-0.011370443
105	0xbd0b37d6	-0.033988796
106	0xbc77c61a	-0.015122915
107	0x3d807c00	0.06273651
108	0x3d3b2ae2	0.045695193
109	0xbd64e45c	-0.055881843
110	0xbcdeaf33	-0.02718315
111	0x3c33568b	0.010945926
112	0x3bc1ed20	0.00591816
113	0x3c594d52	0.0132630635
114	0xbdbce3ba	-0.09223123
115	0xbd5e3fa9	-0.05425993
116	0x3caee0d9	0.02134745
117	0x3d5c7dbe	0.053830855
118	0xbd0933dc	-0.033496723
119	0x3cd0e6ab	0.025500616

fc2.weight f4 [84, 120]
0	0xbd98c096	-0.07458608
1	0x3b9c8fe5	0.0047778958
2	0xbdb94e61	-0.09048153
3	0x3dd420bb	0.10357805
4	0x3d81eb3c	0.063436955
5	0xbd3a87ac	-0.045539543
6	0xbc73702c	-0.014858287
7	0xbd467a3a	-0.048456408
8	0x3da18b29	0.07887871
9	0x3b902e17	0.0044000256
10	0x3b742a78	0.0037256759
11	0xbcdd946c	-0.027048312
12	0x3be8db30	0.0071062073
13	0xbd3334ee	-0.04375165
14	0xbc0e9792	-0.008703129
15	0x3d669622	0.05629552
16	0x3d581894	0.052757815
17	0xbda78aaf	-0.08180749
18	0x3cf86f3e	0.030326482
19	0x3d7d6620	0.061864972
20	0x3aa486cf	0.0012552383
21	0x3c59ee44	0.013301436
22	0xbda96147	-0.08270507
23	0xbd07088a	-0.032967128
24	0xbc0ecf0a	-0.008716354
25	0xbd74e370	-0.059787214
26	0x3c04ef80	0.008113742
27	0xbd601640	-0.05470872
28	0xbd9851c3	-0.0743747
29	0xbd36aaa8	-0.044596344
30	0x3b4588b1	0.003014129
31	0x3b6c2173	0.003603068
32	0x3db6da9f	0.089284174
33	0xbd8cc909	-0.06874282
34	0x3d279dee	0.040922098
35	0x3d9f3b05	0.07774929
36	0xbd5c2828	-0.053749233
37	0xbca83d03	-0.020536905
38	0xbd9684d1	-0.073495515
39	0xbbad6dc6	-0.005292627
40	0x3c460e98	0.01208844
41	0xbdb29048	-0.08718926
42	0x3dbc0c28	0.09182006
43	0xbdb324c9	-0.087472506
44	0xbd3d5730	-0.046225727
45	0x3d05159c	0.03249131
46	0x3d9af646	0.07566504
47	0x3ad08efb	0.0015911752
48	0x3d24215a	0.04007087
49	0xbba9dc13	-0.0051837056
50	0xbcabdcce	-0.020979311
51	0xbcb12dad	-0.021628225
52	0xbda1a7ed	-0.078933574
53	0x3d624a46	0.055246614
54	0x3d789109	0.06068519
55	0x3da8e684	0.08247092
56	0xbd1215f1	-0.035665456
57	0x3ca66a41	0.020314338
58	0x3d8e93c6	0.06961779
59	0x3cc9a182	0.024613146
60	0x3d9f940a	0.07791908
61	0x3c30b0f8	0.01078438
62	0x3d0a724d	0.033800412
63	0x3db4ec2d	0.088341095
64	0x3d1ffe76	0.039061032
65	0xbd50d168	-0.050980955
66	0x3c4e7ab2	0.012602495
67	0xbd6bfbd9	-0.057613228
68	0xbdace48e	-0.08442031
69	0xbc77f090	-0.015133038
70	0xba8dfe13	-0.0010833166
71	0x3d5ce8b3	0.053932857
72	0xbd834e35	-0.06411401
73	0xbd97478b	-0.073866926
74	0xbb6083b4	-0.0034258189
75	0x3d00c09b	0.031433683
76	0xbd1a7bbb	-0.037715655
77	0xbdad7ff2	-0.08471669
78	0xbd813aee	-0.06310068
79	0xbc618053	-0.013763505
80	0x3d4c75c5	0.049917
81	0x3d9e50db	0.07730266
82	0xbd4bfd24	-0.04980196
83	0x3cf72c3e	0.030172464
84	0xb98d0ec6	-0.00026904623
85	0xbdcf0434	-0.101082236
86	0xbc96887f	-0.018375633
87	0xbd7b3fc5	-0.061340112
88	0x3d439332	0.0477478
89	0x3db0f2d6	0.08640067
90	0xbdbf4b6f	-0.0934056
91	0xbdad9a05	-0.084766425
92	0x3cb40036	0.021972757
93	0x3db5d92c	0.08879313
94	0xbc5e84a9	-0.013581433
95	0xbd80df08	-0.0629254
96	0xbd255283	-0.040361892
97	0xbd9a9f14	-0.07549873
98	0xbc4fdf3e	-0.012687502
99	0x3d779f51	0.06045467
100	0x3da7a5a2	0.08185889
101	0xbd8f8e36	-0.070095465
102	0x3dddcaee	0.108297214
103	0x3d4031e7	0.04692259
104	0xbd6c4944	-0.05768706
105	0x3d915666	0.07096557
106	0xbd9f8da7	-0.0779069
107	0xbcbd5a3e	-0.02311432
108	0x3da26901	0.07930184
109	0xbc636c6b	-0.013880829
110	0xbd4ec890	-0.05048424
111	0xbdad64d1	-0.08466495
112	0xbd82f911	-0.06395162
113	0xbd5342cb	-0.05157737
114	0xbd55f2c0	-0.052233458
115	0xbcf31fd6	-0.029678266
116	0x3cd311ac	0.025765263
117	0x3da2b478	0.07944578
118	0xbc535ad6	-0.012900075
119	0x3dafc4b3	0.08582439
120	0x3db00651	0.08594955
121	0x3d183280	0.037157536
122	0x3d851b54	0.06499353
123	0xbcdbbf45	-0.026824603
124	0x3c96d228	0.018410757
125	0x3d008263	0.031374346
126	0xbd1a0f1b	-0.037612062
127	0xbdc80af0	-0.09767711
128	0xbdaa3636	-0.08311121
129	0xbd3e0432	-0.04639072
130	0x3cdc2694	0.026873864
131	0xbc973594	-0.018458165
132	0x3d9b8eeb	0.07595619
133	0xbd0f0300	-0.03491497
134	0x3d9e4bd2	0.07729305
135	0x3db27e84	0.08715537
136	0xbd84f89a	-0.064927295
137	0xbd8b43d4	-0.068000466
138	0xbc39ea94	-0.011347432
139	0x3cbc467b	0.022982826
140	0xbda23212	-0.079197064
141	0x3b1f2eca	0.0024289363
142	0xbc1ea096	-0.009681841
143	0xbc735708	-0.014852293
144	0x3d525f03	0.05136014
145	0x3b78685f	0.0037904007
146	0x3ba41526	0.005007404
147	0x3d3cca70	0.046091497
148	0x3d00919c	0.031388864
149	0xbd70d5c9	-0.05879763
150	0xbdbd0d14	-0.0923101
151	0xbd4a6aa6	-0.049418114
152	0x3d1c76a0	0.038199067
153	0x3cf8ff92	0.030395303
154	0x3d05be61	0.032652263
155	0xbd044937	-0.032296386
156	0x3df5c4e5	0.12000445
157	0xbc5dbab0	-0.013533279
158	0xbcf60943	-0.030033713
159	0xbd662e9a	-0.056196786
160	0xbd979ac9	-0.0740257
161	0x3c66696f	0.014063223
162	0x3d88f19a	0.06686707
163	0xbdabc604	-0.08387378
164	0x3d6c384c	0.057670876
165	0xbdbf1c3d	-0.09331558
166	0x3d4c693b	0.049905043
167	0xbdb525d0	-0.08845103
168	0x3cceb696	0.025233548
169	0xbd64e4b7	-0.055882182
170	0xbd0c5de3	-0.034269225
171	0xbcb33989	-0.02187802
172	0xbd4f481b	-0.050605875
173	0x3d93c4e2	0.07215287
174	0xbcffa486	-0.03120638
175	0x3d605d85	0.054776687
176	0xbcca66df	-0.024707256
177	0x3d108c31	0.035289947
178	0xbb5c8ee4	-0.0033654505
179	0xbda9c62e	-0.08289753
180	0x3da9d483	0.082924865
181	0xbd839f6b	-0.06426891
182	0x3d754e58	0.059889168
183	0xbd491fc9	-0.04910258
184	0x3daf3ee7	0.085569195
185	0x3c1d77b6	0.009611061
186	0x3d906605	0.07050709
187	0x3dc769b7	0.097369604
188	0xbd10c385	-0.035342712
189	0x3d0d4fb4	0.03449984
190	0x3b3e447c	0.002903252
191	0xbd67d5f7	-0.056600537
192	0x3d7b3941	0.0613339
193	0x3c8a9cb9	0.016920434
194	0x3becad79	0.007222828
195	0xbc4e96fd	-0.012609241
196	0xbd1ffe50	-0.03906089
197	0xbd107463	-0.035267245
198	0x3d840ee2	0.06448151
199	0x3d9dd780	0.07707119
200	0xbd5cab3c	-0.05387424
201	0xbd39737e	-0.045276158
202	0x3c08a2bf	0.008339583
203	0xbd5de20c	-0.054170653
204	0x3cb5fb2e	0.022214498
205	0xbd9ae4c7	-0.07563167
206	0x3bbfe773	0.0058564483
207	0x3d59efa7	0.053207066
208	0x3dbe982e	0.0930637
209	0xbc3c2104	-0.011482481
210	0x3ddfce34	0.10928002
211	0x3d5dd4c7	0.054158
212	0xbc537c12	-0.012907999
213	0x3d592182	0.05301047
214	0xbd689d74	-0.056790784
215	0xbcbbec03	-0.022939688
216	0x3dcdfcb1	0.10057963
217	0x3c707563	0.014676425
218	0x3d0e5765	0.034751315
219	0xbd17ba81	-0.0370431
220	0xbd824519	-0.063608356
221	0xbdad386a	-0.08458026
222	0xbd9777cb	-0.073958956
223	0x3d761fd0	0.060088933
224	0x3a2af744	0.0006521831
225	0xbba388f0	-0.0049906895
226	0xbd974678	-0.07386488
227	0x3df339c8	0.11876255
228	0xbdc68de5	-0.09695033
229	0xbacf156c	-0.0015799231
230	0x3d6045bf	0.054754015
231	0x3bba75c2	0.0056903074
232	0x3dd6d95c	0.10490677
233	0xbd1b32a4	-0.03789009
234	0x3c8ad351	0.016946467
235	0x3c299fb0	0.010353014
236	0x3ddcee6e	0.10787664
237	0x3ca5e906	0.020252716
238	0xbdda3e6a	-0.10656436
239	0xbda62910	-0.08113301
240	0x3db6ed4f	0.08931982
241	0xbd3faec8	-0.046797544
242	0xbda370fb	-0.07980534
243	0xbc0f526e	-0.00874768
244	0xbc5f7bb4	-0.013640333
245	0x3d120e29	0.035658035
246	0x3dbcab52	0.09212364
247	0xba1897ae	-0.0005820942
248	0x3ccdccac	0.02512201
249	0xbc781d88	-0.01514376
250	0x3d426197	0.04745635
251	0x3c5fa373	0.013649809
252	0x3dacf2a7	0.0844472
253	0xbcc3e027	-0.023910595
254	0xbd74dbdc	-0.059779987
255	0x3cf12cc1	0.029440286

fc2.bias f4 [84]
0	0x3d8751e7	0.066074185
1	0x3d894207	0.06702047
2	0x3d1f7d91	0.03893811
3	0x3e216a3e	0.15763184
4	0xbc3dd7e6	-0.011587119
5	0xbd24c5f1	-0.040227834
6	0xbe288812	-0.16458157
7	0x3d973199	0.07382507
8	0x3d7e50d9	0.06208882
9	0x3d03b38b	0.032153647
10	0xbd288a5b	-0.04114757
11	0xbd025b25	-0.031825203
12	0x3daf2243	0.08551457
13	0x3da6ddf5	0.08147804
14	0xbd16b539	-0.03679392
15	0xbd9b26c8	-0.07575756
16	0xbb8078ca	-0.003920649
17	0xbd7f32b4	-0.062304214
18	0xbba3bcbe	-0.004996865
19	0xbc97bd43	-0.018522864
20	0x3d3de92e	0.046364956
21	0xbdc4ecd6	-0.09615485
22	0x3d83e5c6	0.0644031
23	0x3de0b1b0	0.10971391
24	0x3d62c2c8	0.05536154
25	0xbd234446	-0.039860032
26	0x3d956c2a	0.07296021
27	0x3d57b46d	0.0526623
28	0x3c264431	0.010148094
29	0xbdae5cf6	-0.08513825
30	0xbc743e3e	-0.014907418
31	0xbd2a6409	-0.041599307
32	0xbd806569	-0.062693425
33	0x3c24b996	0.010054013
34	0x3d5c8e0c	0.053846404
35	0xbdc68226	-0.096927926
36	0x3cf8ea34	0.030385114
37	0x3cae6a36	0.02129088
38	0x3d91a795	0.07112042
39	0xbd9eefae	-0.07760559
40	0xbda615fc	-0.08109662
41	0xbd9e7ac3	-0.07738259
42	0xbd83807d	-0.064209916
43	0x3cba1172	0.022713397
44	0xbcd5eec8	-0.026114836
45	0xbd09b9c7	-0.033624437
46	0x3dc40914	0.09572044
47	0xbce4da39	-0.027936088
48	0xbce8d466	-0.028421592
49	0x3d72baea	0.059260286
50	0xbd6c05c9	-0.057622705
51	0x3da23c82	0.07921697
52	0x3d2f6f63	0.042830836
53	0xbbd8bced	-0.0066143186
54	0xbd8d6847	-0.06904655
55	0xbd868b49	-0.06569535
56	0xbc3d4c70	-0.011553869
57	0x3dce98a8	0.100877106
58	0x3d21f91b	0.039544206
59	0xbd98352b	-0.07432016
60	0xbd59d1c4	-0.053178564
61	0xbbcf9906	-0.0063353805
62	0x3cb50d53	0.02210108
63	0x3d49a85d	0.04923283
64	0xbd895ba5	-0.06706933
65	0xbd3431a2	-0.043992646
66	0xbd372ef4	-0.044722512
67	0xbd83da04	-0.064380676
68	0x3d950e0d	0.072780706
69	0x3d145204	0.03621103
70	0xbdcc9bac	-0.099906296
71	0x3dfd73c7	0.123755984
72	0x3d6b5955	0.05745824
73	0x3d60148f	0.054707106
74	0x3d44f83f	0.04808831
75	0x3b01385f	0.0019717438
76	0xbccba121	-0.024857106
77	0x3ca37471	0.019952985
78	0x3d8d5784	0.06901458
79	0x3ca18fd1	0.019721897
80	0xbca418aa	-0.020031292
81	0xbd0834cb	-0.033253472
82	0xbe0fae9a	-0.14031449
83	0x3d03cf1d	0.03217994

fc3.weight f4 [10, 84]
0	0xbdfede3e	-0.12444733
1	0xbd8bb8a7	-0.06822329
2	0x3e13c864	0.14431912
3	0x3d27f5ce	0.041005902
4	0xbd1f6eda	-0.038924076
5	0xbdc9fe38	-0.098629415
6	0xbe3522f2	-0.17689112
7	0x3cc2499f	0.023716746
8	0x3e039ed3	0.12853555
9	0x3df46d68	0.1193493
10	0xbea6a1ff	-0.32545468
11	0x3c267940	0.010160744
12	0xbe3ccdcc	-0.1843788
13	0xbd184fab	-0.037185352
14	0x3dd68ca7	0.10476046
15	0xbdbcd6a6	-0.092206284
16	0x3e126df3	0.14299755
17	0xbdbd9d8a	-0.09258564
18	0xbe18ea3c	-0.14933103
19	0xbdb7a5e6	-0.089671895
20	0xbdae489d	-0.08509944
21	0x3bd20c50	0.006410159
22	0x3d13683f	0.03598809
23	0xbdbb7702	-0.09153558
24	0xbddb90ee	-0.107210025
25	0x3e0f51eb	0.13996093
26	0xbdd2de17	-0.102962665
27	0x3e372f80	0.17889214
28	0xbd828312	-0.06372656
29	0x3dc920d8	0.098207176
30	0x3c99fe16	0.018797915
31	0x3e6a237c	0.22865099
32	0xbdcc541c	-0.0997698
33	0xbe0718df	-0.13193081
34	0xbe123ef4	-0.14281827
35	0x3dfc2be9	0.12313063
36	0x3c98628f	0.018601684
37	0x3d35acd8	0.04435429
38	0x3e0eedcd	0.13957901
39	0xbdaaeea7	-0.083463006
40	0xbc9689fe	-0.018376347
41	0x3d167da5	0.036740918
42	0xbe852b8c	-0.26009786
43	0x3d891c6b	0.066948734
44	0xbdee7dd0	-0.116450906
45	0x3e4055db	0.18782751
46	0xbe172490	-0.14760041
47	0xbdb3baa3	-0.087758325
48	0xbe55bb2a	-0.20872179
49	0xbdc2947e	-0.09500979
50	0x3dd04fc1	0.10171462
51	0xbde7b0e4	-0.11313036
52	0xbe95c381	-0.2925072
53	0x3e5bdac0	0.21470165
54	0xbe6f6fe8	-0.23382533
55	0x3dd02839	0.10163922
56	0x3dc9a5c4	0.098460704
57	0xbda5aa99	-0.080891795
58	0x3d14f255	0.03636392
59	0xbd499c1c	-0.049221143
60	0xbe5f094c	-0.2178089
61	0xbe25936c	-0.16169518
62	0x3e83f503	0.25772867
63	0xbe16cdf4	-0.14727002
64	0xbd78d29f	-0.06074774
65	0xbd8808f3	-0.06642332
66	0x3cc778e8	0.024349645
67	0x3e646ce4	0.22307163
68	0xbc83009f	-0.015991507
69	0x3a9a69b1	0.0011780766
70	0xbd2bc7d5	-0.04193862
71	0x3c1ebbc7	0.009688324
72	0x3e0736c8	0.13204491
73	0x3cbbe139	0.022934543
74	0xbda80a70	-0.08205116
75	0x3e2894f5	0.16463073
76	0x3e8f4fe8	0.2799065
77	0x3cff1aff	0.031140802
78	0xbe68b7d8	-0.22726381
79	0x3d82eba1	0.06392599
80	0x3d5b01ff	0.0534687
81	0x3dc6624f	0.096867196
82	0x3dd32240	0.10309267
83	0xbe29824a	-0.16553608
84	0xbe050a62	-0.12992242
85	0xbdc9656c	-0.09833798
86	0x3d920d80	0.07131481
87	0xbe9028eb	-0.28156218
88	0x3db93b12	0.0904447
89	0x3d97b69e	0.07407878
90	0x3e1a284f	0.15054439
91	0xbe49be4a	-0.19701496
92	0xbe3fc390	-0.18726945
93	0xbd8665a2	-0.06562354
94	0x3e157df0	0.14598823
95	0x3d3a9a32	0.04555721
96	0xbe157636	-0.14595875
97	0xbe885a16	-0.2663123
98	0xbd318cbc	-0.043347105
99	0x3e37f5bc	0.17964834
100	0xbdb01dc0	-0.08599424
101	0x3a86f84e	0.0010297389
102	0xbdcd68dd	-0.10029767
103	0xbe37b41d	-0.17939802
104	0x3c3e097f	0.011598944
105	0x3d77a325	0.06045832
106	0xbe0452b6	-0.12922177
107	0xbe344e81	-0.17608072
108	0xbbfc3d82	-0.007697762
109	0xbce04eec	-0.027381383
110	0xbdbeedc1	-0.09322692
111	0x3df43f65	0.11926154
112	0x3dc2d868	0.095139325
113	0xbcc0a7de	-0.023517545
114	0x3ca0fb3c	0.019651048
115	0x3e0cdba8	0.13755667
116	0x3d707064	0.058700934
117	0xbd8c359f	-0.06846165
118	0x3c051890	0.008123532
119	0x3e2cf8ea	0.16891828
120	0x3dba8b3d	0.09108589
121	0xbe1eaeaa	-0.15496317
122	0xbe4d0496	-0.2002128
123	0x3e08089e	0.13284537
124	0x3cf04230	0.029328436
125	0x3e64ba84	0.22336775
126	0x39e93a3b	0.00044484608
127	0x3d843104	0.064546615
128	0x3e171dd9	0.1475748
129	0xbc33c1fc	-0.010971542
130	0xbd967598	-0.07346648
131	0xbe02ca18	-0.12772405
132	0x3dceb52d	0.1009315
133	0xbe642cc8	-0.22282708
134	0xbdc29567	-0.095011525
135	0xbe046635	-0.12929614
136	0x3dfb6d95	0.122767605
137	0xbd9253f9	-0.07144923
138	0x3c40b2c5	0.011761372
139	0x3dc9365f	0.098248236
140	0x3c69a0c3	0.01425952
141	0xbe8053d7	-0.25063965
142	0xbda1326d	-0.07870946
143	0x3d41eb8e	0.047343783
144	0x3da84104	0.08215526
145	0x3c471163	0.012150141
146	0x3d211a0b	0.039331477
147	0xbd6f8e87	-0.058485534
148	0x3ded867c	0.115979165
149	0xbd419ade	-0.047266833
150	0xbd8ed19b	-0.06973573
151	0x3e2b2b6c	0.16715783
152	0x3cd24fa3	0.02567274
153	0xbdce89e7	-0.100848965
154	0x3d07f306	0.03319075
155	0xbe0e41d4	-0.13892299
156	0xbb50991d	-0.0031829544
157	0xbe0a7e10	-0.13524652
158	0x3d2acbd3	0.04169829
159	0xbdb1e8e7	-0.08687001
160	0x3e8e21f0	0.27760267
161	0xbe0b38bf	-0.13595866
162	0xbdeb9505	-0.115030326
163	0x3c7d3e9d	0.015456823
164	0x3e043035	0.12909015
165	0x3e40e52f	0.18837427
166	0x3e4595ac	0.19295377
167	0xbe1e4121	-0.15454532
168	0xbdc13b19	-0.094351
169	0x3d1c6785	0.03818466
170	0x3b8d3de5	0.004310357
171	0xbe2d4989	-0.16922583
172	0x3e27515a	0.16339627
173	0x3ce550d7	0.027992649
174	0x3e0b0546	0.1357623
175	0xbdc28558	-0.094980896
176	0xbda5ea91	-0.081013806
177	0x3e148393	0.14503317
178	0x3dba6e8b	0.09103116
179	0xbdf05378	-0.117346704
180	0xbe0e87ad	-0.13918944
181	0xbe53f1cb	-0.20697705
182	0xbdebb7ac	-0.11509642
183	0x3dce34ce	0.100686654
184	0xbd9f0b9c	-0.07765886
185	0xbdbda0b9	-0.09259171
186	0x3df2b5d1	0.11851085
187	0xbd007c62	-0.03136862
188	0x3bb25330	0.0054420456
189	0x3d9d452e	0.076792106
190	0xbd0e8819	-0.03479776
191	0xbdcf87ec	-0.10133347
192	0xbc922ed8	-0.017844602
193	0xbd4de1b5	-0.05026408
194	0x3e56d97b	0.209814
195	0x3d92982c	0.07157931
196	0x3e264966	0.16238937
197	0xbd6e3b0c	-0.05816178
198	0x3e23ea78	0.16007411
199	0x3d1f3f53	0.03887875
200	0xbdf8a6cd	-0.1214119
201	0x3dc84b37	0.09779971
202	0x3dfd1c9b	0.12358972
203	0x3dceada3	0.10091712
204	0x3d96d45e	0.073647246
205	0xbe889b12	-0.2668081
206	0xbe3ff55d	-0.18745942
207	0xbd11a5d9	-0.035558555
208	0x3ddcf85d	0.10789559
209	0x3cd54bcf	0.026037125
210	0x3e3e63bf	0.18592738
211	0xbd36b2a2	-0.04460395
212	0x3db3f1c9	0.08786351
213	0xbbcf92fe	-0.0063346615
214	0xbe128c35	-0.14311297
215	0xbd621394	-0.055194452
216	0x3e169a9a	0.14707413
217	0xbd8d40c6	-0.0689712
218	0x3c81adaf	0.01582989
219	0xbdcf621f	-0.10126137
220	0x3e47f792	0.19528034
221	0x3d897d9b	0.067134105
222	0x3c8a55b2	0.016886566
223	0x3d11c962	0.035592444
224	0x399f2d92	0.00030360796
225	0xbdfd0724	-0.123548776
226	0x3def2cde	0.116784796
227	0x3e3133a0	0.1730485
228	0x3e42ad20	0.19011354
229	0x3d2e0b7f	0.042491432
230	0xbc486dda	-0.012233222
231	0x3d2450e9	0.040116224
232	0x3dc9c261	0.09851528
233	0xbdc7ba01	-0.09752274
234	0x3d9788dd	0.073991515
235	0x3b8f8a5e	0.0043805083
236	0xbdc642af	-0.09680688
237	0x3d907384	0.07053283
238	0x3d3f0c55	0.04664262
239	0xbe1d9eab	-0.15392558
240	0xbe5107f1	-0.20413186
241	0xbd0849f0	-0.033273637
242	0xbde3c560	-0.11121631
243	0xbc2bb379	-0.010479801
244	0x3e2b875d	0.16750856
245	0xbe35bce0	-0.17747831
246	0xbe1f5d11	-0.15562846
247	0x3c89a5b5	0.016802648
248	0xbd92ef89	-0.07174594
249	0x3e0bd126	0.13654003
250	0x3e76966b	0.24080817
251	0x3dbb7102	0.09152414
252	0xbbb21410	-0.0054345205
253	0xbe152e80	-0.1456852
254	0xbe2d2f4e	-0.16912577
255	0xbe6cc2d8	-0.23121202

fc3.bias f4 [10]
0	0xbd020a02	-0.031747825
1	0xbeb1d362	-0.34731585
2	0xbe222389	-0.15833868
3	0xbc482bbd	-0.012217459
4	0x3e675cb7	0.22593962
5	0xbe0de374	-0.13856298
6	0x3dbfbdab	0.09362348
7	0x3e3adca8	0.18248236
8	0x3d536b27	0.05161586
9	0xbba1fdab	-0.0049435697
