Image_Classification_Pipeline（Supervised）/checkpoints/handgesture_cnnnet_sgd_Model_BestEpoch_4_TestLoss_2.2795_TestAcc_1.00.pth (torch, 250887 bytes, 10 tensors)

conv1.weight f4 [6, 3, 5, 5]
0.12683766 -0.030798364 0.062933184 0.2484552 0.018355554 0.13312562 0.010060331 0.1516347
0.16533047 -0.07171613 0.11628631 0.029638836 -0.015096523 -0.1684205 -0.2443022 -0.016397951
-0.055284772 -0.18617909 -0.16141821 -0.17975718 -0.12053043 -0.17491347 -0.13377093 -0.32470658
-0.22964084 0.14102623 0.183039 0.30660045 0.283581 0.29054046 0.19500032 0.26782966
0.326146 0.1841397 -0.18099307 0.15446317 0.24438159 0.0073490883 -0.07711298 -0.4340135
0.20698254 -0.07221187 -0.14200673 -0.41265005 -0.50609106 0.0062819417 -0.21426621 -0.22055617
-0.53558576 -0.46300924 0.11541946 0.16955982 0.4690026 0.57150495 0.4278333 0.3839969
0.29123372 0.3260777 0.49406064 -0.03822887 0.28203043 0.34890997 0.15753439 -0.04470173
-0.56932056 0.18248627 0.017614083 -0.2840097 -0.6612987 -0.7126973 0.032878336 -0.24388777
-0.35824034 -0.71618646 -0.60419035 -0.16200984 -0.1264711 -0.094490014 -0.23337984 -0.003909653
-0.22768599 -0.21511835 -0.090844445 -0.11012119 0.023556266 -0.21344365 -0.17823938 0.025153257
-0.07164404 0.040812135 -0.0786228 -0.12194566 -0.015938887 -0.023250908 -0.10374 -0.12173264
0.023009188 -0.012052841 -0.0943027 -0.08896827 -0.12335051 -0.17587495 -0.05336172 -0.047859024
-0.082288586 -0.25930446 0.020088106 -0.03855469 0.033420984 0.047731057 -0.10354943 0.06390319
0.1183821 -0.067446284 0.06880786 -0.002071637 0.12038991 0.1174629 -0.053811114 -0.026472362
-0.0872671 0.08792279 0.17596868 -0.03581543 0.07530204 -0.3331095 -0.2610707 -0.12074653
-0.009401169 0.14389852 -0.2522462 -0.040241122 0.09500083 0.06952984 0.15489401 -0.056933876
0.09278171 0.098678134 -0.013202247 0.02542582 -0.116165474 0.08713402 0.05206377 0.14212064
0.16071726 -0.0016395717 0.1964696 0.18478149 0.17671306 0.14502905 -0.04436537 -0.043763954
-0.17705852 0.1071619 -0.01708032 0.016196875 -0.23319149 -0.33785746 0.06506455 0.09300896
0.05902887 -0.0766356 -0.27997023 -0.06405447 0.08528623 0.16375196 -0.09764806 -0.27351472
-0.23470657 0.054046158 0.06658136 0.057261758 -0.15596546 -0.060403496 0.18144464 0.08696632
-0.13398072 -0.24791378 0.01120919 0.1616456 0.055459157 -0.26336852 -0.53643084 -0.07440102
0.070005946 0.26157096 -0.3086055 -0.57612216 -0.19043885 0.13006611 0.21454714 -0.14941806
-0.4486515 -0.19757006 0.24955936 0.07028448 0.061382376 -0.1965695 -0.025511783 0.043642357
0.0016680764 -0.32276183 -0.21158524 0.02289112 0.11799054 0.09434331 -0.32162216 -0.5494187
-0.069934696 0.19597599 0.19824101 -0.24078716 -0.72460973 -0.15917125 0.3117406 0.30835646
-0.07187332 -0.61284614 -0.32069322 0.2961183 0.11104197 0.089099474 -0.47377402 -0.30242884
0.20065609 -0.25977984 0.036887687 0.3506384 0.3295787 0.13439108 -0.3114694 -0.16618994
0.37521496 0.23064473 0.006591324 -0.25743693 -0.20759988 0.2922362 0.27827588 -0.042490203
-0.24352172 -0.09735846 0.18325213 0.1400579 0.0039779292 0.0005105339 -0.10783499 0.032876924
0.07245794 0.18868503 -0.17065421 -0.0068715853 0.29205853 0.24551909 -0.052942853 -0.4755787
00000000: bbe1 013e da4c fcbc 1de3 803d 0a6b 7e3e
00000010: 635e 963c 1552 083e 16d4 243c 2046 1b3e
00000020: 644c 293e e8df 92bd 8427 ee3d 25cd f23c
00000030: 6857 77bc 6c76 2cbe 5b2a 7abe ff54 86bc
00000040: 4972 62bd bba5 3ebe d14a 25be 4412 38be
00000050: a8d8 f6bd 841c 33be 3ffb 08be f13f a6be
00000060: f826 6bbe 2e69 103e 936e 3b3e bcfa 9c3e
00000070: 8731 913e b8c1 943e 2aae 473e f820 893e
00000080: 9cfc a63e 1e8f 3c3e 3f56 39be 982b 1e3e
00000090: 2b3f 7a3e 9fd0 f03b 69ed 9dbd 0437 debe
000000a0: 3bf3 533e d1e3 93bd 366a 11be de46 d3be
000000b0: 2f8f 01bf bfd8 cd3b 9a68 5bbe 7ad9 61be
000000c0: 261c 09bf 8c0f edbe 0a61 ec3d 17a1 2d3e
000000d0: 1c21 f03e 264e 123f f70c db3e 3e9b c43e
000000e0: 961c 953e a8f3 a63e 84f5 fc3e e095 1cbd
000000f0: 4b66 903e 54a4 b23e b250 213e 2919 37bd
00000100: febe 11bf aedd 3a3e 694b 903c b869 91be
00000110: df4a 29bf 5573 36bf 6fab 063d b7bd 79be
00000120: 476b b7be ff57 37bf 38ac 1abf e8e5 25be
00000130: a481 01be fb83 c1bd 20fb 6ebe 8c1c 80bb
00000140: 8426 69be fc47 5cbe a70c babd 3887 e1bd
00000150: 12f9 c03c f990 5abe 6284 36be 340e ce3c
00000160: 1cba 92bd a02a 273d fe04 a1bd a5be f9bd
00000170: 4592 82bc b078 bebc a375 d4bd f64e f9bd
00000180: c47d bc3c 4779 45bc c621 c1bd ff34 b6bd
00000190: 319f fcbd 9018 34be d291 5abd d307 44bd
000001a0: eb86 a8bd 8ec3 84be d08f a43c 86eb 1dbd
000001b0: 71e4 083d a481 433d b911 d4bd addf 823d
000001c0: 5072 f23d 4721 8abd 23eb 8c3d 4dc4 07bb
000001d0: fc8e f63d 6490 f03d 0b69 5cbd 91dc d8bc
000001e0: 18b9 b2bd dd10 b43d 2231 343e 33b3 12bd
000001f0: f537 9a3d 548d aabe 0fab 85be f549 f7bd
00000200: 5c07 1abc 225a 133e 6a26 81be e0d3 24bd
00000210: cc8f c23d a965 8e3d 899c 1e3e 7f33 69bd
00000220: 5604 be3d c317 ca3d 3d4e 58bc cf49 d03c
00000230: 2ae8 edbd 5273 b23d d240 553d 1388 113e
00000240: 1193 243e e6e6 d6ba 542f 493e 5c37 3d3e
00000250: 45f4 343e 7f82 143e 76b8 35bd d541 33bd
00000260: d44e 35be b377 db3d 07ec 8bbc 4faf 843c
00000270: c0c9 6ebe a7fb acbe 9040 853d 7b7b be3d
00000280: 42c8 713d 20f3 9cbd 4258 8fbe fd2e 83bd
00000290: 8caa ae3d 98ae 273e b5fb c7bd 1f0a 8cbe
000002a0: eb56 70be 815f 5d3d cf5b 883d 4e8b 6a3d
000002b0: 69b5 1fbe a869 77bd a0cc 393e 661b b23d
000002c0: 3e32 09be 1cdd 7dbe c0a6 373c 6d86 253e
000002d0: 2429 633d 3dd8 86be 8853 09bf 905f 98bd
000002e0: 475f 8f3d a1ec 853e 8a01 9ebe be7c 13bf
000002f0: 6702 43be 0d30 053e 3fb2 5b3e 0c01 19be
00000300: a6b5 e5be ce4f 4abe 7d8c 7f3e 4ff1 8f3d
00000310: 166c 7b3d 8449 49be 16fe d0bc 54c2 323d
00000320: 5ba3 da3a 0a41 a5be cda9 58be 2886 bb3c
00000330: 06a5 f13d 1137 c13d a9ab a4be b4a6 0cbf
00000340: ec39 8fbd eead 483e b1ff 4a3e e990 76be
00000350: 0680 39bf cafd 22be 779c 9f3e e6e0 9d3e
00000360: 5232 93bd 7ce3 1cbf e731 a4be d19c 973e
00000370: f969 e33d c979 b63d 8292 f2be f4d7 9abe
00000380: ca78 4d3e dd01 85be 8b17 173d e086 b33e
00000390: 8abe a83e d19d 093e eb78 9fbe b22d 2abe
000003a0: 2d1c c03e 222e 6c3e 09fc d73b c6ce 83be
000003b0: 1095 54be fc9f 953e 2d7a 8e3e 350a 2ebd
000003c0: c25d 79be df63 c7bd 72a6 3b3e 576b 0f3e
000003d0: 4a59 823b 5ad5 053a 97d8 dcbd f4a9 063d
000003e0: d464 943d a636 413e fabf 2ebe 092b e1bb
000003f0: b288 953e 5b69 7b3e 9bda 58bd 0d7f f3be

conv1.bias f4 [6]
-0.09900901 -0.19692829 0.24881858 0.29546183 0.107731976 0.05107916
00000000: 3cc5 cabd 92a7 49be 4cca 7e3e c646 973e
00000010: 95a2 dc3d 6238 513d

conv2.weight f4 [16, 6, 5, 5]
-0.04129888 -0.05779532 0.06682811 -0.056178298 0.050592583 -0.080626115 0.063863516 0.014692155
-0.024688825 0.06529041 -0.09545909 -0.032078356 -0.016122466 -0.06337267 -0.024040077 -0.062188063
0.058473017 0.029981865 0.031825628 0.011585787 -0.091432154 0.02289429 0.01627583 -0.08162567
-0.0049347905 -0.07675049 -0.0057540187 0.0049587437 0.041563194 -0.06713741 -0.09645342 0.056423422
0.01580711 0.011952357 0.0003868315 -0.054553702 0.036446285 -0.08872457 -0.012755712 0.0064692427
0.033170197 -0.046687137 -0.07215059 0.0073758108 -0.0908002 -0.08411142 -0.080564626 -0.05599534
-0.0342445 -0.06796042 -0.040527854 -0.081612326 0.06515978 0.00485025 -0.07307688 0.0065347855
-0.07547943 0.074101105 0.06250883 -0.096338674 -0.07179283 -0.068763666 -0.033788126 0.022579769
-0.095666304 -0.06504932 0.025626652 -0.027361317 -0.021683889 -0.07568877 0.04113305 0.005987573
-0.04058724 -0.041241653 0.009738671 -0.018385705 -0.0022061004 -0.0071892883 -0.033545844 -0.06684619
0.027387688 -0.04063728 -0.08029364 0.051404186 0.038117394 -0.07131206 -0.07182491 -0.052577198
-0.07410873 0.021260072 -0.052966345 0.05426936 -0.05804369 0.001824856 -0.019504277 -0.023686206
0.048588436 -0.07727982 -0.089234166 -0.014558703 0.063520715 -0.03388162 -0.049769673 -0.0513749
-0.035438858 -0.028413951 -0.017914342 -0.0463712 0.025531702 0.0007229439 -0.052124344 -0.045203358
0.016767466 -0.001366861 0.05743681 -0.010070061 -0.06408653 -0.060199603 -0.024820508 -0.018447649
0.010320823 -0.015737956 0.030846065 -0.02684939 0.05890814 0.015546044 -0.026698196 0.06973911
0.017147742 -0.05778395 -0.048263937 0.0481549 0.03451435 0.060109172 -0.008047709 0.053261627
0.03726992 0.022091512 -0.021421488 0.0757974 0.013319077 -0.023112718 -0.0039004018 0.07731687
0.052455746 -0.008697535 0.077229306 0.033197463 -0.045433898 -0.07537087 -0.02092229 -0.13507248
-0.29409996 -0.1026938 -0.12311447 -0.16040719 -0.29906175 -0.2340228 0.009764874 0.16421752
-0.052319728 -0.14114675 -0.15459931 -0.049968544 -0.03790868 0.2727182 0.24127254 0.023691852
0.05093976 0.052012328 0.381272 0.30947906 0.15345456 0.30011496 0.23935099 -0.103781246
-0.025222458 -0.09970833 -0.13283081 -0.05859715 -0.04265068 -0.019094402 -0.09406417 -0.12761284
-0.11053834 -0.03713484 0.10592781 0.09016917 -0.01585634 -0.086940624 -0.1105848 0.0762754
-0.071086995 -0.059674367 -0.15106693 -0.10965159 -0.17515337 -0.09602696 -0.11808544 -0.14365591
-0.047254562 -0.054791152 -0.10783896 0.121141 0.22024798 0.056190934 -0.16022271 -0.20573863
0.09029074 0.30711216 0.116090834 -0.22312883 -0.27462924 -0.112790026 0.3104014 0.10037721
-0.16902077 -0.14177696 -0.1185984 0.16613911 0.097530276 -0.03382639 0.022355923 -0.12089865
0.061828323 -0.042093467 -0.09631665 -0.18362346 -0.11079073 0.23080578 -0.02759193 -0.09360718
-0.1889991 -0.2258698 0.10169625 -0.03897463 -0.06507566 -0.14647706 -0.20195411 -0.13618605
0.0359084 0.05350195 0.016192263 0.002551368 -0.13213366 -0.13440268 0.0774138 0.24278419
0.08966614 -0.057039306 0.04858132 0.06894213 0.05413348 -0.06031408 -0.013924258 -0.014948501
00000000: 0429 29bd c9ba 6cbd 2ddd 883d 371b 66bd
00000010: 2b3a 4f3d 4e1f a5bd e0ca 823d 5db7 703c
00000020: 3840 cabc fab6 853d 0e80 c3bd 9864 03bd
00000030: 4313 84bc 88c9 81bd b2ef c4bc e9b8 7ebd
00000040: 6781 6f3d 879c f53c 975b 023d 50d2 3d3c
00000050: c840 bbbd ce8c bb3c e454 853c 5c2b a7bd
00000060: 06b4 a1bb 5c2f 9dbd 358c bcbb f57c a23b
00000070: 2b3e 2a3d 577f 89bd 5f89 c5bd 3f1c 673d
00000080: ea7d 813c d2d3 433c a5cf ca39 b473 5fbd
00000090: b348 153d 3ab5 b5bd 55fd 50bc f1fb d33b
000000a0: 79dd 073d 033b 3fbd b0c3 93bd c9b0 f13b
000000b0: 75f5 b9bd 9c42 acbd 11ff a4bd 5f5b 65bd
000000c0: f643 0cbd d52e 8bbd 8900 26bd 5d24 a7bd
000000d0: 7e72 853d d9ee 9e3b 55a9 95bd c121 d63b
000000e0: f694 9abd 52c2 973d a104 803d 364d c5bd
000000f0: 1f08 93bd f7d3 8cbd 6b65 0abd 35f9 b83c
00000100: b2ec c3bd 9438 85bd fcee d13c d724 e0bc
00000110: 69a2 b1bc b702 9bbd 217b 283d 6733 c43b
00000120: ce3e 26bd 02ed 28bd f28e 1f3c 9e9d 96bc
00000130: 3994 10bb 1f94 ebbb 5e67 09bd a8e6 88bd
00000140: 255c e03c 4773 26bd fe70 a4bd 328d 523d
00000150: fc20 1c3d 0f0c 92bd f018 93bd 305b 57bd
00000160: 51c6 97bd 9a29 ae3c 3df3 58bd 8c49 5e3d
00000170: 38bf 6dbd 0230 ef3a 6fc7 9fbc 9309 c2bc
00000180: ab04 473d e244 9ebd 67c0 b6bd a087 6ebc
00000190: 2617 823d 74c7 0abd 49db 4bbd 7d6e 52bd
000001a0: 5628 11bd 60c4 e8bc 19c1 92bc baef 3dbd
000001b0: dc27 d13c f283 3d3a 5680 55bd 2827 39bd
000001c0: ed5b 893c 3f28 b3ba dc42 6b3d e6fc 24bc
000001d0: cc3f 83bd dc93 76bd 6154 cbbc 861f 97bc
000001e0: ab18 293c e3ec 80bc e3b0 fc3c 40f3 dbbc
000001f0: a949 713d d6b4 7e3c 2db6 dabc 61d3 8e3d
00000200: 6c79 8c3c ddae 6cbd 68b0 45bd 133e 453d
00000210: eb5e 0d3d 0935 763d 8ada 03bc dd28 5a3d
00000220: 58a8 183d 42f9 b43c 1e7c afbc ab3b 9b3d
00000230: 4238 5a3c e256 bdbc e29d 7fbb 4f58 9e3d
00000240: d6db 563d 1b80 0ebc 662a 9e3d 10fa 073d
00000250: e518 3abd 0b5c 9abd 3965 abbc 7150 0abe
00000260: 4594 96be 2151 d2bd 7023 fcbd c841 24be
00000270: 9f1e 99be aca3 6fbe dafc 1f3c a328 283e
00000280: 364d 56bd c688 10be 484f 1ebe d1ab 4cbd
00000290: 2246 1bbd b8a1 8b3e 2610 773e 6a15 c23c
000002a0: 36a6 503d e10a 553d 1536 c33e 0a74 9e3e
000002b0: 3123 1d3e aba8 993e 6d18 753e 438b d4bd
000002c0: 549f cebc e233 ccbd cd04 08be 9103 70bd
000002d0: 7bb2 2ebd dd6b 9cbc b7a4 c0bd f1ac 02be
000002e0: ed61 e2bd b41a 18bd aef0 d83d 9daa b83d
000002f0: 28e5 81bc ed0d b2bd 497a e2bd 4736 9c3d
00000300: 0f96 91bd 1c6d 74bd 4ab1 1abe 0391 e0bd
00000310: 685b 33be c8a9 c4bd c7d6 f1bd 891a 13be
00000320: 008e 41bd b06c 60bd acda dcbd c618 f83d
00000330: b088 613e 7728 663d 6c11 24be 26ad 52be
00000340: 5aea b83d ce3d 9d3e 08c1 ed3d e27b 64be
00000350: 349c 8cbe 75fe e6bd efec 9e3e 9192 cd3d
00000360: c813 2dbe fb2d 11be b8e3 f2bd 5f20 2a3e
00000370: f4bd c73d 8a8d 0abd c523 b73c b699 f7bd
00000380: b23f 7d3d 336a 2cbd aa41 c5bd ca07 3cbe
00000390: 40e6 e2bd 5a58 6c3e 7908 e2bc 1fb5 bfbd
000003a0: fb88 41be 6a4a 67be 2046 d03d dda3 1fbd
000003b0: 6346 85bd 15fe 15be 0fcd 4ebe 5b74 0bbe
000003c0: b014 133d dc24 5b3d a3a5 843c da34 273b
000003d0: 0c4e 07be dba0 09be 208b 9e3d 6b9c 783e
000003e0: e2a2 b73d 0ca2 69bd 35fd 463d 8831 8d3d
000003f0: 11bb 5d3d e60b 77bd 9222 64bc 8fea 74bc

conv2.bias f4 [16]
-0.026728654 0.16757518 -0.06487113 -0.209767 -0.054672394 -0.049452424 -0.18090586 -0.103135616
-0.06556492 -0.080551095 -0.2412577 -0.10673097 0.014219136 0.036513533 0.0074643404 -0.2191012
00000000: 0df6 dabc d498 2b3e 28db 84bd 29cd 56be
00000010: 29f0 5fbd a08e 4abd 633f 39be c438 d3bd
00000020: e746 86bd f9f7 a4bd 420c 77be c495 dabd
00000030: 61f7 683c 378f 153d 6d97 f43b 115c 60be

fc1.weight f4 [120, 400]
0.010625778 -0.02932518 -0.04207998 0.012819696 0.03428834 -0.0031431667 0.021736989 0.023236059
0.039671108 -0.044343993 -0.019134672 0.0074209953 0.052176695 0.045215752 -0.03754262 -0.031655822
0.046422273 -0.0014308986 -0.021256115 -0.025826575 0.031254206 0.027026126 0.04465364 -0.0018188556
-0.010522005 0.014783343 0.0424975 -0.03853963 -0.021801917 -0.067114726 -0.011012535 0.032887977
-0.04144367 -0.07692843 -0.068869695 -0.006527025 0.025782682 -0.050143257 -0.0036912076 -0.033249497
-0.027613962 -0.02521246 0.002832322 -0.059805892 -0.007313804 -0.025620358 0.05081029 0.019974964
-0.030489538 0.03790943 0.04734055 -0.056535237 0.074652605 0.08979329 0.050833922 -0.038414232
0.03186062 0.050541848 0.011237733 0.044127855 -0.03633582 -0.013908115 0.01877199 -0.01743774
0.025791448 0.049807366 0.025265759 0.035717312 -0.043002896 -0.024559833 0.012614308 0.021707628
-0.012486907 -0.062307943 -0.098768465 0.03401553 0.0022069258 0.023022106 0.07394599 0.08166367
0.035070978 0.032116503 -0.058996037 -0.038878158 0.050894246 0.0095339 0.040515583 0.027602663
-0.010639531 -0.08052884 -0.019138636 0.0599653 0.070303515 0.013621332 -0.111673795 -0.035484273
-0.038926404 -0.018959064 -0.030572847 -0.08817759 0.04282625 -0.024842415 0.012571746 -0.02384633
-0.0017184417 -0.03573962 -0.018583186 0.034626804 -0.025380708 -0.029294284 -0.0024426247 -0.035087653
-0.026488231 -0.015129053 -0.0068237707 -0.009184907 0.0058337403 -0.043240134 -0.0062584393 -0.05241308
0.028722407 0.044772755 -0.039552134 -0.034249082 0.04147018 0.06580202 0.09684312 0.07564693
0.12982124 0.06597367 0.054342728 0.0400977 0.0025110613 0.078765936 -0.03385999 0.0025030565
-0.049127094 0.008916598 -0.097167246 -0.118148 -0.04681563 -0.0051562036 0.052164946 -0.041100677
-0.04119506 -0.06178733 -0.039968286 0.041536216 0.0031121923 -0.00047153496 0.04403177 0.02709088
-0.03609216 -0.021763775 0.011147872 0.015602002 -0.0166631 -0.0408531 -0.064300485 0.04800209
0.029307451 -0.009550647 -0.020975415 -0.022492662 -0.0050193644 -0.05902044 0.017903117 -0.03293289
-0.029901069 0.07418808 0.015505413 0.038676947 0.0055123223 0.014468666 0.021019561 0.024604745
-0.02127065 -0.050040048 -0.0020056975 0.10858206 0.0045041433 -0.038967583 -0.018566163 0.07044419
0.13398358 0.050167803 0.046911087 -0.08318426 0.052668884 0.09470147 -0.028391011 -0.0009980709
-0.0075675813 0.026419891 -0.0001734749 -0.0118672205 -0.02563754 -0.016587617 -0.035001874 -0.11156203
0.033599023 -0.04049181 -0.038310777 0.007033702 -0.0019863562 0.03488256 0.024096653 -0.0005147967
0.007167179 0.042008292 -0.041093875 -0.013764327 0.030862397 -0.04077142 0.025113788 0.035244156
0.020107526 -0.029821899 -0.032556947 0.012586538 -0.022259798 0.026229247 0.017199745 0.004332591
0.04427907 -0.046855494 -0.044384334 0.035078213 -0.014300659 -0.047039445 -0.016226323 0.037214976
-0.006763496 0.024623893 0.029008867 -0.01579746 0.025200458 0.015161544 -0.03181217 -0.010524021
0.029897593 0.019836752 0.0069738487 -0.0058442056 -0.034314845 -0.018036906 0.03201613 -0.0025971737
-0.030320954 0.006777469 -0.024798177 0.044649586 -0.08379764 -0.12127791 -0.020661945 -0.0023538338
00000000: be17 2e3c 5c3b f0bc 0f5c 2cbd b409 523c
00000010: ee71 0c3d 96fd 4dbb c511 b23c 8c59 be3c
00000020: 2c7e 223d 0ca2 35bd 51c0 9cbc d22b f33b
00000030: 3bb7 553d 2734 393d 4ac6 19bd 89a9 01bd
00000040: 4825 3e3d fd8c bbba 4e21 aebc 4192 d3bc
00000050: 6904 003d e565 dd3c bce6 363d ab66 eeba
00000060: 7d64 2cbc d635 723c dc11 2e3d bbdb 1dbd
00000070: ef99 b2bc 7273 89bd eb6d 34bc 8bb5 063d
00000080: d6c0 29bd a78c 9dbd 8e0b 8dbd a7e0 d5bb
00000090: 3436 d33c 0463 4dbd 30e8 71bb a030 08bd
000000a0: ad36 e2bc 5c8a cebc 7a9e 393b 06f7 74bd
000000b0: a2a8 efbb c9e1 d1bc 731e 503d 89a2 a33c
000000c0: 32c5 f9bc eb46 1b3d 2ae8 413d 7e91 67bd
000000d0: 77e3 983d 8be5 b73d 3b37 503d 3e58 1dbd
000000e0: 4880 023d f804 4f3d 781e 383c 69bf 343d
000000f0: ded4 14bd ddde 63bc b7c7 993c 97d9 8ebc
00000100: 9648 d33c cf02 4c3d 23fa ce3c 514c 123d
00000110: ce23 30bd b431 c9bc 3eac 4e3c 32d4 b13c
00000120: e295 4cbc 9d36 7fbd 1f47 cabd de53 0b3d
00000130: 12a2 103b db98 bc3c ff70 973d 483f a73d
00000140: 96a6 0f3d 988c 033d d4a5 71bd b43e 1fbd
00000150: 7c76 503d 1334 1c3c abf3 253d fb1e e23c
00000160: 6d51 2ebc 4eec a4bd a1c8 9cbc 2d9e 753d
00000170: 4afb 8f3d 022c 5f3c 3bb5 e4bd f557 11bd
00000180: 4b71 1fbd 0a50 9bbc e873 fabc 7496 b4bd
00000190: 946a 2f3d 5282 cbbc b9f9 4d3c 6159 c3bc
000001a0: 563d e1ba b563 12bd c43b 98bc d6d4 0d3d
000001b0: 34eb cfbc 91fa efbc 7114 20bb 12b8 0fbd
000001c0: d9fd d8bc d9df 77bc f099 dfbb 4b7c 16bc
000001d0: f628 bf3b 911c 31bd 9813 cdbb 19af 56bd
000001e0: 414b eb3c a363 373d 6b01 22bd c448 0cbd
000001f0: a3dc 293d 36c3 863d b055 c63d c7ec 9a3d
00000200: dcef 043e 341d 873d 7b96 5e3d 7c3d 243d
00000210: 9e90 243b 0950 a13d c6b0 0abd 520a 243b
00000220: 7e39 49bd ec16 123c 9fff c6bd 94f7 f1bd
00000230: bfc1 3fbd 5ff5 a8bb e9aa 553d 2f59 28bd
00000240: 27bc 28bd b614 7dbd c9b5 23bd e121 2a3d
00000250: ecf5 4b3b 5a38 f7b9 a85a 343d b1ed dd3c
00000260: 5fd5 13bd f249 b2bc 90a5 363c 8a9f 7f3c
00000270: 0e81 88bc 9555 27bd f9af 83bd d79d 443d
00000280: 2e16 f03c 517a 1cbc a2d4 abbc 8842 b8bc
00000290: 7b79 a4bb 6bbf 71bd 8fa9 923c a3e4 06bd
000002a0: 16f3 f4bc ecef 973d 6a0a 7e3c b86b 1e3d
000002b0: b6a0 b43b fc0d 6d3c 3731 ac3c e48f c93c
000002c0: c93f aebc cbf6 4cbd 0572 03bb 4560 de3d
000002d0: 7e97 933b 799c 1fbd 1118 98bc 0b45 903d
000002e0: fe32 093e c17c 4d3d d725 403d 825c aabd
000002f0: 54bb 573d d8f2 c13d 4494 e8bc b4d1 82ba
00000300: 79f9 f7bb 876e d83c d0e6 35b9 bb6e 42bc
00000310: d105 d2bc c1e2 87bc 205e 0fbd a27a e4bd
00000320: 219f 093d bdda 25bd c3eb 1cbd f87a e63b
00000330: 872d 02bb 04e1 0e3d 5866 c53c 6cf3 06ba
00000340: a8da ea3b e310 2c3d 0d52 28bd c683 61bc
00000350: 23d3 fc3c efff 26bd 6ebb cd3c 2d5c 103d
00000360: 8ab8 a43c 0e4d f4bc 6f5a 05bd c437 4e3c
00000370: 2e5a b6bc b8de d63c 7be6 8c3c 68f8 8d3b
00000380: f85d 353d 8ceb 3fbd 59cc 35bd 2cae 0f3d
00000390: 504d 6abc 6fac 40bd 11ed 84bc bb6e 183d
000003a0: 51a0 ddbb 0cb8 c93c 01a4 ed3c ad69 81bc
000003b0: 3171 ce3c 2068 783c 7a4d 02bd f26c 2cbc
000003c0: cceb f43c af80 a23c e284 e43b c080 bfbb
000003d0: b98d 0cbd 22c2 93bc 5823 033d 5835 2abb
000003e0: a663 f8bc 8815 de3b 8c25 cbbc 7ce2 363d
000003f0: 199e abbd 8e60 f8bd 3d43 a9bc c742 1abb

fc1.bias f4 [120]
0.05052734 -0.062975205 -0.04362659 -0.0072876685 -0.027031023 0.036592036 -0.102612935 -0.027980784
-0.04383586 -0.04316957 0.052098252 0.05736889 0.084722094 -0.012866569 0.04537209 0.029325472
0.0020275794 0.0076304288 0.0055864793 0.062195282 0.16304503 -0.057928983 -0.03623727 -0.0919788
0.018338831 0.044949535 0.06048399 -0.0065400847 0.048803825 -0.042534698 0.007850506 -0.051683266
-0.05644421 0.046557456 -0.09843562 -0.0019089417 0.03409182 0.05026028 -0.032766428 -0.022585416
0.037715077 -0.021938777 0.019197552 0.0013612619 -0.0064663985 -0.0039332565 -0.0956958 -0.023020022
-0.00871178 0.018176708 -0.084507205 0.089590855 0.0028430067 -0.005838395 0.09584992 0.021834815
0.05655672 -0.029832533 -0.054060034 -0.03578975 0.06680842 -0.023940505 0.046837654 0.00043006174
0.014508995 -0.102739036 -0.009631994 0.032901946 -0.09778871 0.13443434 -0.0054895147 0.023203373
0.014887398 -0.018850416 0.12819251 0.02658047 0.08516904 -0.04852418 0.0603082 0.041990582
-0.016493192 -0.02515304 -0.03921169 0.090589546 -0.07345254 0.0039451104 -0.033578254 0.031034276
0.10837097 0.04581249 -0.00016101339 -0.011642335 0.075258695 -0.056581166 0.006717625 -0.03501098
0.0047757886 0.01653172 -0.020488739 -0.034774218 0.10412962 -0.033463743 0.051025264 0.049965173
-0.019669676 -0.027187185 -0.022829972 0.05462209 0.038388804 -0.061632674 -0.017875105 0.023866313
0.020434067 0.023609344 -0.084782474 -0.028133048 0.03000448 0.04571335 -0.038871024 0.019032285
00000000: c2f5 4e3d 25f9 80bd ccb1 32bd 65cd eebb
00000010: 2a70 ddbc 88e1 153d bb26 d2bd f537 e5bc
00000020: 3b8d 33bd 93d2 30bd fa64 553d a4fb 6a3d
00000030: c782 ad3d 4dce 52bc 16d8 393d f93b f03c
00000040: 23e1 043b ad08 fa3b c90e b73b 7bc0 7e3d
00000050: 47f5 263e f146 6dbd 886d 14bd 625f bcbd
00000060: 513b 963c 011d 383d 0fbe 773d 354e d6bb
00000070: 85e6 473d dd38 2ebd 699f 003c d5b1 53bd
00000080: 0b32 67bd 08b3 3e3d 9d98 c9bd 7435 faba
00000090: dda3 0b3d b9dd 4d3d 1736 06bd 0d05 b9bc
000000a0: 207b 1a3d f3b8 b3bc 2f44 9d3c 5f6c b23a
000000b0: 15e4 d3bb 8ce2 80bb 29fc c3bd 7c94 bcbc
000000c0: dbbb 0ebc 52e7 943c 1d12 adbd 697b b73d
000000d0: bd51 3a3b 0250 bfbb f64c c43d edde b23c
000000e0: 05a8 673d 5b63 f4bc 0e6e 5dbd 4698 12bd
000000f0: dad2 883d e11e c4bc d7d8 3f3d e979 e139
00000100: 23b7 6d3c d868 d2bd 83cf 1dbc 31c4 063d
00000110: 7245 c8bd 28a9 093e 63e1 b3bb 0015 be3c
00000120: 46ea 733c 306c 9abc e644 033e 49bf d93c
00000130: 1b6d ae3d 4ac1 46bd bb05 773d 51fe 2b3d
00000140: bb1c 87bc c00d cebc 709c 20bd 0387 b93d
00000150: 496e 96bd fc45 813b 5a89 09bd 983b fe3c
00000160: 99f1 dd3d e1a5 3b3d b4d5 28b9 7ebf 3ebc
00000170: 3b21 9a3d a7c1 67bd 861f dc3b ac67 0fbd
00000180: 387e 9c3b 886d 873c 00d8 a7bc 696f 0ebd
00000190: e941 d53d 4711 09bd deff 503d 48a8 4c3d
000001a0: 4d22 a1bc a9b7 debc ec05 bbbc 6abb 5f3d
000001b0: 943d 1d3d 8b72 7cbd d06e 92bc 4983 c33c
000001c0: 5865 a73c 6268 c13c 6fa2 adbd 4777 e6bc
000001d0: f5cb f53c ec3d 3b3d 3937 1fbd 98e9 9b3c

fc2.weight f4 [84, 120]
-0.069541834 0.0028767555 -0.09080309 0.10222117 0.057756655 -0.036711723 -0.013983737 -0.051675342
0.07781291 0.013168203 0.0079611065 -0.021545377 0.013498977 -0.049173616 -0.006376085 0.055746414
0.06279636 -0.08228567 0.028342621 0.05872193 0.0002912358 0.016455673 -0.07998111 -0.028532732
-0.013171963 -0.05998725 0.010455617 -0.048967417 -0.077289656 -0.047336165 -0.0003714043 0.005426742
0.09395778 -0.05794249 0.03900297 0.07499789 -0.051334508 -0.029344687 -0.07486955 -0.003989879
0.014194427 -0.08386586 0.09055001 -0.087194435 -0.0465818 0.026656974 0.076753154 0.003611111
0.041402377 -0.011623203 -0.018716305 -0.025245178 -0.07665183 0.058794763 0.053221796 0.07876813
-0.036007464 0.014862712 0.07227329 0.028143391 0.07251997 0.008458515 0.03600612 0.093692735
0.039285194 -0.041533936 0.012805343 -0.05033215 -0.07792373 -0.023723977 -0.011788981 0.060296457
-0.055604532 -0.08020153 0.0026611437 0.028404232 -0.048809588 -0.088308595 -0.058433514 -0.013827485
0.048483264 0.08136199 -0.044531554 0.024412746 -0.00066241995 -0.09402263 -0.0054045534 -0.065742485
0.04592935 0.083109535 -0.08815801 -0.08390942 0.018249482 0.088438556 -0.011234528 -0.057518296
-0.035211544 -0.07303264 -0.0053430344 0.06584673 0.07739407 -0.07859198 0.10284517 0.04936413
-0.044649586 0.07019356 -0.08173366 -0.012110313 0.07334697 -0.0012392568 -0.051702626 -0.085397996
-0.064720616 -0.05085393 -0.050413623 -0.025344456 0.030027114 0.08997229 -0.015776584 0.083729625
0.09404466 0.032517247 0.059415292 -0.018637286 0.016640829 0.033911124 -0.036917076 -0.096612744
-0.083126806 -0.04354238 0.01581361 -0.026744088 0.0823769 -0.03214933 0.0868033 0.087120004
-0.054967545 -0.07418672 -0.0121061485 0.02828491 -0.07780376 0.0008624643 -0.0073533542 -0.01629215
0.05914193 0.004182936 0.007383396 0.04866881 0.029536432 -0.055862088 -0.09676129 -0.05149955
0.046006396 0.03270135 0.03339617 -0.024465373 0.11085775 -0.023329157 -0.030918417 -0.06284083
-0.084688574 0.019266518 0.062433727 -0.08002889 0.057949595 -0.08947991 0.045797925 -0.078040786
0.02866985 -0.05661123 -0.05269619 -0.023821654 -0.055768754 0.08030293 -0.046234038 0.052881055
-0.034292456 0.04460037 0.009122174 -0.08926867 0.089142635 -0.06467818 0.0649847 -0.036008112
0.08273511 0.0075010755 0.07128464 0.105464414 -0.03351423 0.028220821 0.0070723593 -0.04897373
0.074878804 0.0077797696 0.0145031 -0.014778941 -0.047944248 -0.03787955 0.063308775 0.073756866
-0.05774759 -0.0355237 0.013697863 -0.05743485 0.0146108065 -0.074962124 0.01361758 0.04757531
0.10126176 -0.017817853 0.106674045 0.05136249 -0.022604542 0.056074336 -0.06452761 -0.0074287164
0.08993147 0.025236506 0.040332355 -0.04251294 -0.063235655 -0.10271137 -0.06815289 0.056662884
0.004201766 0.0048145885 -0.08123141 0.12059894 -0.100890525 0.004376559 0.047396533 0.0025384463
0.09534949 -0.03830082 0.014945317 0.017095473 0.10292799 0.03136585 -0.10565147 -0.08138284
0.0754996 -0.039239146 -0.083582245 0.002357307 -0.00011525044 0.026271889 0.087284125 0.009451689
0.03486998 -0.028432785 0.041860703 -0.0041659917 0.08537561 -0.026035124 -0.062662035 0.014114242
00000000: f36b 8ebd f387 3c3b f8f6 b9bd 5559 d13d
00000010: 3e92 6c3d 085f 16bd 0b1c 65bc 86a9 53bd
00000020: 605c 9f3d 72bf 573c 4d6f 023c ee7f b0bc
00000030: d02a 5d3c 466a 49bd 7aee d0bb 5a56 643d
00000040: 619b 803d 6485 a8bd c92e e83c 6886 703d
00000050: 02b1 9839 0cce 863c 23cd a3bd 7abd e9bc
00000060: 38cf 57bc 31b5 75bd 094e 2b3c 0f92 48bd
00000070: 0a4a 9ebd 91e3 41bd 0bb9 c2b9 d0d2 b13b
00000080: f06c c03d 1b55 6dbd 94c1 1f3d 7e98 993d
00000090: 2244 52bd 4564 f0bc 3555 99bd 88bd 82bb
000000a0: be8f 683c ddc1 abbd 4972 b93d ff92 b2bd
000000b0: 8fcc 3ebd ba5f da3c c230 9d3d 64a8 6c3b
000000c0: 8a95 293d 3f6f 3ebc f052 99bc face cebc
000000d0: a2fb 9cbd c7d2 703d 19ff 593d 2f51 a13d
000000e0: 907c 13bd bb82 733c 0504 943d f88c e63c
000000f0: 5a85 943d 9595 0a3c 277b 133d fae1 bf3d
00000100: 83e9 203d 7d1f 2abd 80cd 513c 1629 4ebd
00000110: 7a96 9fbd c958 c2bc 9226 41bc 6bf9 763d
00000120: 94c1 63bd b340 a4bd 9566 2e3b feaf e83c
00000130: 90ec 47bd 23db b4bd fb57 6fbd ad8c 62bc
00000140: 6396 463d 1da1 a63d b866 36bd 3dfd c73c
00000150: 40a6 2dba f08e c0bd ae18 b1bb ffa3 86bd
00000160: 6a20 3c3d 5535 aa3d 308c b4bd b4d8 abbd
00000170: f07f 953c 461f b53d 0711 38bc 4e98 6bbd
00000180: fb39 10bd 2392 95bd 9f14 afbb a6da 863d
00000190: c880 9e3d d5f4 a0bd 7da0 d23d 0b32 4a3d
000001a0: 7ce2 36bd a4c1 8f3d fa63 a7bd 566a 46bc
000001b0: f036 963d 8f6e a2ba 22c6 53bd 25e5 aebd
000001c0: 3e8c 84bd 364c 50bd 847e 4ebd 2d9f cfbc
000001d0: 6cfb f53c 6443 b83d e53d 81bc 707a ab3d
000001e0: 7d9a c03d ce30 053d 735d 733d 39ad 98bc
000001f0: 5952 883c 64e6 0a3d 5c36 17bd e7dc c5bd
00000200: 633e aabd 7f59 32bd 8b8b 813c 6b16 dbbc
00000210: 38b5 a83d 04af 03bd eec5 b13d f96b b23d
00000220: a625 61bd 35ef 97bd de58 46bc c1b5 e73c
00000230: 9457 9fbd 0017 623a 68f4 f0bb 1d77 85bc
00000240: cf3e 723d 0311 893b 6af0 f13b f258 473d
00000250: 63f6 f13c a5cf 64bd c92a c6bd 31f1 52bd
00000260: 3471 3c3d daf1 053d 6cca 083d 9b6b c8bc
00000270: 6309 e33d ca1c bfbc 9f48 fdbc b1b2 80bd
00000280: 3471 adbd d1d4 9d3c 82ba 7f3d 30e6 a3bd
00000290: 8e5c 6d3d 3e41 b7bd 9b96 3b3d d9d3 9fbd
000002a0: 09dd ea3c 2de1 67bd f6d7 57bd a125 c3bc
000002b0: c76d 64bd dd75 a43d e75f 3dbd ce99 583d
000002c0: 3f76 0cbd e1ae 363d 2c75 153c 7ed2 b6bd
000002d0: 6a90 b63d fe75 84bd b316 853d 3e7d 13bd
000002e0: 0671 a93d 95cb f53b aefd 913d bafd d73d
000002f0: 3846 09bd 5a2f e73c 40bf e73b ae98 48bd
00000300: 0f5a 993d 70ed fe3b 699e 6d3c 5f23 72bc
00000310: 3061 44bd 9627 1bbd 08a8 813d d70d 973d
00000320: bd88 6cbd 4d81 11bd 006d 603c ce40 6bbd
00000330: 2a62 6f3c be85 99bd 451c 5f3c 54de 423d
00000340: 5362 cf3d bff6 91bc ec77 da3d 7961 523d
00000350: 292d b9bc 34ae 653d 0d27 84bd 976c f3bb
00000360: fe2d b83d cabc ce3c 8a33 253d 0c22 2ebd
00000370: b281 81bd 575a d2bd be93 8bbd 5717 683d
00000380: f8ae 893b b2c3 9d3b a75c a6bd 94fc f63d
00000390: b19f cebd 3d69 8f3b de22 423d 105c 263b
000003a0: 9846 c33d 52e1 1cbd 34dd 743c ce0b 8c3c
000003b0: e9cb d23d 7a79 003d cc5f d8bd 0cac a6bd
000003c0: 899f 9a3d 3ab9 20bd 2b2d abbd 0c7d 1a3b
000003d0: 9cb2 f1b8 2538 d73c 05c2 b23d 42db 1a3c
000003e0: d3d3 0e3d dfeb e8bc 2176 2b3d df82 88bb
000003f0: 68d9 ae3d 9d47 d5bc f454 80bd 6c3f 673c

fc2.bias f4 [84]
0.059871413 0.06346421 0.055596557 0.15584822 -0.042440288 -0.047299977 -0.1814621 0.08287087
0.055133566 0.033903606 -0.029453326 -0.029168125 0.1091667 0.08129005 -0.06459694 -0.07296648
-0.0025549661 -0.06788056 -0.016252112 -0.034651365 0.04463253 -0.11123819 0.05629107 0.104342364
0.05761612 -0.046249695 0.07853606 0.043218367 0.028117573 -0.09429192 -0.011470556 -0.025115922
-0.09178614 0.002827395 0.036553912 -0.11091948 0.03441142 0.025780933 0.087361254 -0.07865834
-0.07893915 -0.06391493 -0.07511809 0.03980085 -0.011408422 -0.029837817 0.10420325 -0.026940791
-0.02866681 0.07642899 -0.06321467 0.071671344 0.042117074 -0.007983277 -0.074374676 -0.08254126
-0.0007991268 0.096753135 0.034219142 -0.07970697 -0.055941317 0.0129934 0.027006198 0.04277058
-0.075763226 -0.036525454 -0.043110143 -0.044420693 0.07827038 0.04367928 -0.10585152 0.1419856
0.059438664 0.07006134 0.05744125 0.007627646 -0.01696898 0.029247893 0.056201626 0.03963485
-0.019830614 -0.037136506 -0.13849567 0.043221377
00000000: ba3b 753d 86f9 813d 37b9 633d ad96 1f3e
00000010: ded5 2dbd 9fbd 41bd 33d1 39be 34b8 a93d
00000020: bcd3 613d 82de 0a3d 1a48 f1bc fef1 eebc
00000030: ca92 df3d 667b a63d 674b 84bd 736f 95bd
00000040: 3871 27bb f704 8bbd 2623 85bc 97ee 0dbd
00000050: 9ad0 363d d9d0 e3bd 7791 663d 73b1 d53d
00000060: e1fe 6b3d 5270 3dbd 84d7 a03d be05 313d
00000070: d356 e63c 1f1c c1bd 00ef 3bbc e8bf cdbc
00000080: 5ffa bbbd d14b 393b 8eb9 153d c129 e3bd
00000090: fdf2 0c3d 8932 d33c 75ea b23d a017 a1bd
000000a0: d9aa a1bd d5e5 82bd 83d7 99bd 3706 233d
000000b0: 64ea 3abc 706e f4bc 8368 d53d efb2 dcbc
000000c0: a8d6 eabc cd86 9c3d b176 81bd 6dc8 923d
000000d0: f482 2c3d 4acc 02bc c051 98bd 640b a9bd
000000e0: 7e7c 51ba 8226 c63d 5f29 0c3d 683d a3bd
000000f0: b922 65bd 45e2 543c 1a3c dd3c 3430 2f3d
00000100: c029 9bbd b79b 15bd 4394 30bd 79f2 35bd
00000110: 394c a03d 0be9 323d afc8 d8bd ac64 113e
00000120: f575 733d 527c 8f3d 8447 6b3d 55f1 f93b
00000130: 8802 8bbc 4799 ef3c ad33 663d 2758 223d
00000140: d073 a2bc 731c 18bd cfd1 0dbe e608 313d

fc3.weight f4 [10, 84]
-0.09433369 -0.07279863 0.17178096 0.03380071 -0.053873725 -0.088898785 -0.21328978 0.085584536
0.16873536 0.1402213 -0.3404002 0.046002917 -0.2100086 -0.047359142 0.11516861 -0.11186862
0.1449255 -0.108198166 -0.18752936 -0.092279226 -0.10851033 0.01928248 0.05417808 -0.10934642
-0.12249395 0.17777002 -0.12376273 0.14799361 -0.08661354 0.11773697 0.025571281 0.23051305
-0.103907876 -0.15985654 -0.16732614 0.1077691 0.019474816 0.10163742 0.17520867 -0.14384489
-0.0069682784 0.05457065 -0.2961945 0.087505735 -0.12926356 0.16339456 -0.11234493 -0.09206884
-0.24700819 -0.1324959 0.087203585 -0.13016899 -0.36844063 0.22217067 -0.28380546 0.13686581
0.12884113 -0.10279709 0.052575935 -0.061436825 -0.24519628 -0.17594905 0.29170233 -0.15472436
-0.06002721 -0.05785884 0.05785714 0.17579699 -0.016835885 0.052667513 -0.0481607 0.03132462
0.15039025 0.016505687 -0.08320289 0.18065464 0.29586896 0.08121799 -0.23972937 0.080698244
0.071416065 0.104455076 0.089468025 -0.20938885 -0.14136906 -0.15898092 0.084961906 -0.26112387
0.08046849 0.056658324 0.14689608 -0.23833945 -0.21862537 -0.11046903 0.09141523 0.05717334
-0.1359187 -0.2657711 0.0060980786 0.16298321 -0.05673759 0.0083147185 -0.11073017 -0.2090912
0.03252466 0.05108828 -0.1459283 -0.18117847 0.021946657 -0.054867383 -0.1344307 0.1687994
0.09828908 0.0068044174 -0.029866898 0.15192723 0.08609701 -0.080910906 -0.032141883 0.18054588
0.08584914 -0.17098728 -0.22115727 0.19773321 0.039789498 0.21849592 -0.022229265 0.019380042
0.12515843 0.035137694 -0.11181877 -0.14296363 0.08174175 -0.2039963 -0.05540001 -0.12621146
0.14134857 -0.057148058 0.014966514 0.09465753 -0.029334314 -0.27516145 -0.07985265 0.019945255
0.041014444 -0.016462903 0.024457047 -0.115166806 0.09961776 -0.03771556 -0.11883468 0.26918855
0.028649619 -0.16200389 0.03573135 -0.120956026 0.05088946 -0.10578843 0.03244782 -0.06761463
0.28427675 -0.16340354 -0.11604248 0.018665975 0.12925819 0.20034392 0.17868926 -0.1549806
-0.08680473 0.07702724 -0.030905174 -0.17428525 0.20516597 0.04790003 0.17438051 -0.10596541
-0.060230207 0.15221761 0.08123612 -0.123626806 -0.19161959 -0.2109508 -0.086263314 0.08783852
-0.081474915 -0.08742531 0.16037409 0.021186389 -0.016304558 0.10317974 -0.030719625 -0.080340534
-0.03296049 -0.04900064 0.21605442 0.08742807 0.12809265 -0.048027646 0.1866228 0.0060231844
-0.09310357 0.13917887 0.16230349 0.12687686 0.050101493 -0.26395285 -0.1959933 -0.07335621
0.09939296 -0.012211231 0.22918317 -0.059223507 0.06342604 -0.024690447 -0.15909173 -0.0455412
0.1413943 -0.07964651 0.00320246 -0.07894921 0.19030659 0.069909774 0.042123847 0.06362305
-0.00018740032 -0.096475005 0.14106274 0.20468602 0.21926625 0.047074918 -0.017670548 0.07065309
0.11774671 -0.11472071 0.09944139 -0.06706045 -0.09523042 0.06332379 0.05254845 -0.20006658
-0.2520471 -0.057665583 -0.1345842 -0.027050143 0.1462398 -0.1672472 -0.15675624 -0.009987336
-0.08731764 0.15171294 0.24259463 0.08498727 -0.01629285 -0.1535546 -0.15169093 -0.22878508
00000000: 0632 c1bd 7317 95bd 59e7 2f3e 9d72 0a3d
00000010: b2aa 5cbd 9110 b6bd a368 5abe f246 af3d
00000020: f6c8 2c3e 2c96 0f3e ef48 aebe 8e6d 3c3d
00000030: 7f0c 57be a9fb 41bd 85dd eb3d 601b e5bd
00000040: 5a67 143e 0097 ddbd b207 40be e4fc bcbd
00000050: aa3a debd 4bf6 9d3c d6e9 5d3d 04f1 dfbd
00000060: 1cde fabd 5809 363e 5077 fdbd a38b 173e
00000070: 7162 b1bd 1520 f13d dd7a d13c 9d0b 6c3e
00000080: a7cd d4bd 6fb1 23be 8b57 2bbe 0cb6 dc3d
00000090: a689 9f3c 4827 d03d e769 333e 134c 13be
000000a0: 2856 e4bb 7985 5f3d cea6 97be 3536 b33d
000000b0: ab5d 04be e750 273e 1915 e6bd 978e bcbd
000000c0: b7ef 7cbe 01ad 07be cb97 b23d 054b 05be
000000d0: 40a4 bcbe b580 633e f34e 91be 8d26 0c3e
000000e0: eeee 033e 4887 d2bd dd59 573d 2ea5 7bbd
000000f0: bc14 7bbe fd2b 34be 025a 953e 1070 1ebe
00000100: 17df 75bd 64fd 6cbd 9cfb 6c3d 2004 343e
00000110: 69eb 89bc e4b9 573d 2744 45bd 3f4e 003d
00000120: e7ff 193e ef36 873c 4766 aabd 88fd 383e
00000130: 237c 973e 9e55 a63d 9e7b 75be 1f45 a53d
00000140: 9642 923d 8bec d53d 033b b73d 086a 56be
00000150: 0dc3 10be e5cb 22be 8200 ae3d 07b2 85be
00000160: aacc a43d 8f12 683d ed6b 163e 420f 74be
00000170: 54df 5fbe 963d e2bd e837 bb3d 982e 6a3d
00000180: 462e 0bbe 2613 88be 64d2 c73b 12e5 263e
00000190: ad65 68bd 753a 083c 80c6 e2bd 011c 56be
000001a0: 9438 053d f241 513d 3a6e 15be d986 39be
000001b0: 7ac9 b33c 9fbc 60bd 34a8 09be c0d9 2c3e
000001c0: c94b c93d 97f7 de3b 6dab f4bc d092 1b3e
000001d0: a153 b03d 9eb4 a5bd 35a7 03bd 05e1 383e
000001e0: add1 af3d 4a17 2fbe 0d77 62be 937a 4a3e
000001f0: 50fa 223d 65bd 5f3e 261a b6bc e5c2 9e3c
00000200: 8829 003e 8bec 0f3d 3d01 e5bd 0f65 12be
00000210: 3868 a73d 68e4 50be 1feb 62bd 943d 01be
00000220: aebd 103e 1514 6abd 1c36 753c cfdb c13d
00000230: 844e f0bc f6e1 8cbe c989 a3bd 3b64 a33c
00000240: c3fe 273d 36dd 86bc 255a c83c 93dc ebbd
00000250: 6504 cc3d a27b 1abd 995f f3bd 15d3 893e
00000260: 9bb2 ea3c 59e4 25be 095b 123d cbb7 f7bd
00000270: 7771 503d 9ba7 d8bd 01e8 043d 8a79 8abd
00000280: b98c 913e 4253 27be aea7 edbd 63e9 983c
00000290: 425c 043e f526 4d3e 51fa 363e 3cb3 1ebe
000002a0: aec6 b1bd 75c0 9d3d d92c fdbc d577 32be
000002b0: 0717 523e d232 443d ce90 323e 6504 d9bd
000002c0: f3b3 76bd efde 1b3e 1f5f a63d 0d30 fdbd
000002d0: ed37 44be 7d03 58be d2aa b0bd afe4 b33d
000002e0: 52dc a6bd 0a0c b3bd 1b39 243e 148f ad3c
000002f0: 2391 85bc e64f d33d b9a7 fbbc 9489 a4bd
00000300: 9401 07bd e5b4 48bd 5f3d 5d3e 7d0d b33d
00000310: b82a 033e a3b8 44bd 0c1a 3f3e 225e c53b
00000320: 16ad bebd e884 0e3e e332 263e 02ec 013e
00000330: 3937 4d3d d424 87be 78b2 48be c83b 96bd
00000340: 898e cb3d 9d11 48bc feae 6a3e 5994 72bd
00000350: 83e5 813d 9f43 cabc f1e8 22be 6989 3abd
00000360: abc9 103e b61d a3bd 5de0 513b 20b0 a1bd
00000370: bbdf 423e db2c 8f3d 0e8a 2c3d cd4c 823d
00000380: e480 44b9 b094 c5bd c072 103e 3699 513e
00000390: 5587 603e a1d1 403d d3c1 90bc 91b2 903d
000003a0: 3025 f13d b1f2 eabd eda7 cb3d fd56 89bd
000003b0: 2b08 c3bd e7af 813d 0b3d 573d 41de 4cbe
000003c0: 510c 81be bf32 6cbd 71d0 09be 4398 ddbc
000003d0: e3bf 153e da42 2bbe b584 20be eca1 23bc
000003e0: 97d3 b2bd a35a 1b3e ba6a 783e ce0d ae3d
000003f0: 9578 85bc 6b3d 1dbe de54 1bbe a346 6abe

fc3.bias f4 [10]
-0.009949472 -0.34397608 -0.18482192 -0.02863169 0.17872758 -0.123220734 0.0583262 0.24018595
0.07376741 -0.00016112448
00000000: 1c03 23bc a21d b0be f541 3dbe 028d eabc
00000010: 5d04 373e 275b fcbd 74e7 6e3d 4ef3 753e
00000020: 5e13 973d 86f3 28b9
