Pipeline/checkpoints/handgesture_CNN_Model_LastEpoch_4_TestLoss_0.0990_TestAcc_0.95.pth (torch, 250887 bytes, 10 tensors)

conv1.weight f4 [6, 3, 5, 5]
0	0x3d97cbdd	0.07411931
1	0xbde20eba	-0.11037965
2	0xbd7e53dc	-0.062091693
3	0x3e9e4afa	0.30916578
4	0x3db39d31	0.08770216
5	0x3db94156	0.09045665
6	0xbd61454c	-0.054997727
7	0x3de65783	0.1124716
8	0x3e432515	0.19057114
9	0xbdede039	-0.11615033
10	0x3e07960c	0.13240832
11	0x3c384411	0.011246697
12	0x3cfa9707	0.030589594
13	0xbe1c68d9	-0.15274371
14	0xbeb35709	-0.3502734
15	0x3cb14e9a	0.021643925
16	0xbd5a76a2	-0.053335793
17	0xbe486e1c	-0.19573253
18	0xbdd5643d	-0.104195096
19	0xbe549a37	-0.20761953
20	0xbe3eb3e1	-0.18623306
21	0xbe318e10	-0.17339349
22	0xbe07c515	-0.13258775
23	0xbe3b7cd8	-0.18309343
24	0xbe72eab2	-0.23722342
25	0x3dc4650d	0.095895864
26	0x3e019e26	0.12657985
27	0x3e78d6ac	0.24300641
28	0x3eeebf75	0.46630445
29	0x3efb6fb4	0.4910866
30	0x3e3753c4	0.17903048
31	0x3e830915	0.25592867
32	0x3ebda155	0.3703715
33	0x3ea10f5f	0.3145704
34	0xbe103d7c	-0.14085954
35	0x3e52f432	0.20600966
36	0x3e923eb8	0.28563476
37	0x3e09b6e0	0.13448668
38	0x3b38df31	0.0028209204
39	0xbf081b1d	-0.5316637
40	0x3e947b99	0.29000548
41	0xbd2b7da9	-0.041867886
42	0xbe05c441	-0.13063146
43	0xbeaa4e5a	-0.33262902
44	0xbf10b66f	-0.5652837
45	0xbcff0f0d	-0.031135106
46	0xbe5e520a	-0.21710983
47	0xbe7803af	-0.24220155
48	0xbed00671	-0.40629914
49	0xbf01453b	-0.5049626
50	0x3da69c0a	0.08135231
51	0x3dfe4cef	0.12417018
52	0x3ee8e0e1	0.4548407
53	0x3f58f891	0.8475428
54	0x3f341ecd	0.703595
55	0x3ecb214c	0.3967384
56	0x3e9b1466	0.30289
57	0x3ed394bd	0.41324416
58	0x3f32544f	0.69659895
59	0x3cad240e	0.021135356
60	0x3eb8dae5	0.36104503
61	0x3ed84a66	0.42244262
62	0x3ea44f48	0.32091737
63	0x3d809bf3	0.06279745
64	0xbf374593	-0.71590537
65	0x3e8e906f	0.2784457
66	0x3d6843c2	0.056705244
67	0xbe96057d	-0.29301062
68	0xbf1e8cb2	-0.61933434
69	0xbf54d1d4	-0.8313267
70	0xba53f862	-0.0008086023
71	0xbe8a3a3f	-0.26997563
72	0xbee4dfab	-0.44701895
73	0xbf2620de	-0.648939
74	0xbf31b86b	-0.69422024
75	0xbe18cc2a	-0.14921632
76	0xbdcf54aa	-0.1012357
77	0xbdb2af1c	-0.08724806
78	0xbe6c0d62	-0.2305198
79	0x3c178e72	0.00925027
80	0xbe5c2094	-0.21496803
81	0xbe3ddbd4	-0.18540889
82	0xbdabcfd6	-0.08389251
83	0xbdcd89ee	-0.100360736
84	0x3cd5f472	0.026117537
85	0xbe4f04b2	-0.20216635
86	0xbe29b78f	-0.16573928
87	0x3cf2b85e	0.029628929
88	0xbd8df9d4	-0.069324166
89	0x3d09fb9f	0.03368723
90	0xbd8b800a	-0.06811531
91	0xbe058c8a	-0.13041893
92	0xbcc00ccc	-0.023443602
93	0xbd18022e	-0.037111454
94	0xbdeaef40	-0.114714146
95	0xbde81d28	-0.11333686
96	0x3bc38a42	0.0059674093
97	0xbce3428c	-0.027741693
98	0xbdedd1ae	-0.11612259
99	0xbdc61932	-0.096727744
100	0xbd96b48c	-0.07358655
101	0xbe10628a	-0.1410009
102	0xbd44213f	-0.04788327
103	0xbd2acd88	-0.041699916
104	0xbd89a470	-0.06720817
105	0xbe60c4dc	-0.21950096
106	0x3d54781e	0.051872365
107	0xbd26b11f	-0.04069626
108	0x3d244544	0.04010512
109	0x3d3df8d3	0.046379875
110	0xbd9238ff	-0.071397774
111	0x3d96c4d5	0.073617615
112	0x3de13602	0.10996629
113	0xbd9e23d2	-0.07721676
114	0x3d4d73c5	0.050159235
115	0x3c974cd6	0.018469255
116	0x3dcdd41a	0.10050221
117	0x3db53fa2	0.088500276
118	0xbdb5867c	-0.088635415
119	0xbd625f86	-0.05526688
120	0xbda91141	-0.08255244
121	0x3d3e322f	0.046434578
122	0x3e080987	0.13284884
123	0xbda96b4a	-0.08272417
124	0x3d50389f	0.050835248
125	0xbe7fb273	-0.24970417
126	0xbe5c6cec	-0.21525925
127	0xbde8d750	-0.113691926
128	0x3b6b5edf	0.0035914702
129	0x3e28bdf3	0.1647871
130	0xbe3e80a9	-0.18603767
131	0xbbbe585b	-0.0058088726
132	0x3db1d17d	0.08682535
133	0x3d9b793b	0.07591482
134	0x3e1c8832	0.1528633
135	0xbbdb0a9b	-0.006684614
136	0x3dd001cd	0.101565935
137	0x3d9c34f2	0.07627286
138	0xbd01c8d8	-0.03168568
139	0xb9b3b642	-0.00034277333
140	0xbdb61bf5	-0.08892051
141	0x3d641461	0.055683497
142	0x3b070fda	0.0020608814
143	0x3db8ad2c	0.09017405
144	0x3df87d10	0.12133229
145	0x391f5ddf	0.00015198391
146	0x3e0a7a7e	0.1352329
147	0x3dec6511	0.115427144
148	0x3de6da3d	0.112720944
149	0x3de70572	0.112803355
150	0xbcdb881f	-0.026798306
151	0xbda35703	-0.079755805
152	0xbe079199	-0.13239135
153	0x3e40d68c	0.18831843
154	0x3df24ddb	0.11831256
155	0x3d8806a2	0.0664189
156	0xbe68b751	-0.2272618
157	0xbe9eaab5	-0.30989614
158	0x3e0337ea	0.12814298
159	0x3e4e751b	0.2016186
160	0x3e0bd96f	0.13657163
161	0xbd15f076	-0.036606275
162	0xbe6eb771	-0.23312165
163	0x3c45b057	0.0120659685
164	0x3e591ae0	0.21201658
165	0x3e8a3fab	0.270017
166	0xbd326449	-0.04355267
167	0xbe791dc5	-0.24327762
168	0xbe5d575e	-0.21615359
169	0x3e230b24	0.15922219
170	0x3e1ab92a	0.15109697
171	0x3dd5385f	0.104111426
172	0xbdcfc974	-0.10145846
173	0xbd5c4ce4	-0.053784266
174	0x3e84ec12	0.25961357
175	0x3dac12fc	0.084020585
176	0xbe56dfdd	-0.20983835
177	0xbe6f7a55	-0.2338651
178	0x3deab6cb	0.11460646
179	0x3ea955c1	0.33073238
180	0x3dc4ba8a	0.09605892
181	0xbe96972c	-0.2941221
182	0xbf0f6ebb	-0.56028336
183	0xbb62f1e8	-0.003462905
184	0x3e568ea3	0.20952849
185	0x3eb4ba9d	0.35298625
186	0xbe907ef2	-0.28221852
187	0xbf13e957	-0.57777923
188	0xbde325e0	-0.110912085
189	0x3e92f010	0.28698778
190	0x3eb520ff	0.35376737
191	0xbdaaa4b7	-0.08332198
192	0xbee508f2	-0.44733387
193	0xbe398c70	-0.18119979
194	0x3ec42971	0.38312867
195	0x3e462ab3	0.19352226
196	0x3e178bad	0.14799376
197	0xbe111e9c	-0.14171833
198	0xbd014c43	-0.03156687
199	0x3e0eb2b5	0.13935359
200	0xbd447111	-0.04795939
201	0xbee7f141	-0.4530125
202	0xbe67389f	-0.22580193
203	0x3e13b8be	0.14425942
204	0x3e9ec2f5	0.31008115
205	0x3dcb9ce8	0.09942037
206	0xbed254cc	-0.4108032
207	0xbf2040af	-0.625987
208	0x3b4492fe	0.002999484
209	0x3eb66a35	0.35627905
210	0x3e8a6814	0.2703253
211	0xbe847a46	-0.25874537
212	0xbf495a0b	-0.7865302
213	0xbdc32d92	-0.09530176
214	0x3ef6672e	0.48125595
215	0x3ee4cd84	0.44688046
216	0xbca8cef3	-0.020606494
217	0xbf29bafc	-0.6630094
218	0xbeaad857	-0.3336818
219	0x3ee0c919	0.43903425
220	0x3e77e4e5	0.2420841
221	0x3e42edeb	0.19036071
222	0xbee660b4	-0.44995654
223	0xbeb0a8f9	-0.34503916
224	0x3e97ffed	0.29687443
225	0xbea15885	-0.31512848
226	0xbd1dbb6a	-0.03850881
227	0x3e8fe49a	0.28104097
228	0x3e67c31b	0.2263302
229	0x3d0e5da2	0.034757264
230	0xbeb29d18	-0.34885478
231	0xbe8579ad	-0.26069394
232	0x3ea02642	0.31279188
233	0x3dea9338	0.11453861
234	0xbdfdf4fb	-0.12400242
235	0xbe8ddca8	-0.2770741
236	0xbe9e1b2c	-0.30880105
237	0x3e61dadc	0.22056144
238	0x3e285a61	0.16440727
239	0xbe4ac2e5	-0.19800909
240	0xbe9e0868	-0.30865788
241	0xbe24d366	-0.16096267
242	0x3df60af2	0.120138064
243	0x3d5614bc	0.052265868
244	0xbe20d758	-0.15707147
245	0xbda7d465	-0.08194808
246	0xbe36ec0b	-0.17863481
247	0xbceb2f4d	-0.028709078
248	0x3b9bdac0	0.0047563016
249	0x3d21753c	0.039418444
250	0xbe73a242	-0.23792365
251	0xbd90b5fd	-0.070659615
252	0x3e754b1e	0.23954436
253	0x3e2d4a3d	0.16922851
254	0xbe00cec9	-0.12578882
255	0xbf0896e1	-0.5335522

conv1.bias f4 [6]
0	0xbdae2c2c	-0.08504519
1	0xbe4bdc6a	-0.199083
2	0x3ebf0a41	0.3731251
3	0x3e279865	0.16366728
4	0x3da12c16	0.07869737
5	0x3d4d53ee	0.05012887

conv2.weight f4 [16, 6, 5, 5]
0	0xbd795254	-0.06086953
1	0xbd331d59	-0.04372916
2	0x3d898be2	0.06716134
3	0xbd8f03cb	-0.06983145
4	0x3d154e45	0.036451597
5	0xbdbca1ec	-0.09210572
6	0x3d429e8e	0.04751449
7	0x3c3d6e24	0.011561904
8	0xbd070957	-0.03296789
9	0x3d0bef52	0.03416378
10	0xbdaf833a	-0.08569951
11	0xbd8e0f97	-0.06936567
12	0xbcfe530c	-0.03104546
13	0xbdca9438	-0.09891552
14	0xbd45044c	-0.0480998
15	0xbd8e0714	-0.06934944
16	0x3d48e1b4	0.049043372
17	0x3d27ee18	0.04099855
18	0xbb91a827	-0.004445094
19	0x3d09a2f9	0.03360269
20	0xbdc59db2	-0.096492186
21	0x3b778a8e	0.0037771794
22	0x3cae2030	0.021255583
23	0xbdd35971	-0.10319794
24	0x3c92f942	0.017941121
25	0xbd551b9e	-0.05202829
26	0x3c04c840	0.008104384
27	0x3c9e4770	0.019321173
28	0x3d70a8f0	0.05875486
29	0xbd61a6b2	-0.055090614
30	0xbd92d29f	-0.07169079
31	0x3d90e6b2	0.07075252
32	0x3ce66c17	0.028127713
33	0x3cdcffbd	0.026977414
34	0x3c8905ac	0.016726337
35	0xbd0f16a5	-0.034933705
36	0x3d358822	0.04431928
37	0xbd9df909	-0.07713515
38	0xb94de870	-0.00019636913
39	0x3cc9793b	0.02459394
40	0x3d4a375b	0.049369197
41	0xbd38fba9	-0.045161877
42	0xbd754059	-0.05987582
43	0x3cadb5a5	0.021204779
44	0xbd9a5fc9	-0.07537801
45	0xbd9608b0	-0.07325876
46	0xbd9e8bf7	-0.0774154
47	0xbd33ca33	-0.043894004
48	0xbcbc43d1	-0.022981556
49	0xbd62ccc4	-0.05537106
50	0xbd53d947	-0.051720884
51	0xbda7f4e1	-0.08201004
52	0x3d31993f	0.043359037
53	0x3bd89b35	0.006610299
54	0xbd77571f	-0.06038582
55	0xbb2a9ef3	-0.0026034683
56	0xbd946974	-0.07246676
57	0x3d597dfd	0.053098667
58	0x3db72427	0.089424424
59	0xbdb020d6	-0.08600013
60	0xbdb249dc	-0.08705494
61	0xbd8c0c11	-0.06838239
62	0xbd617ec3	-0.05505253
63	0x3d459d5e	0.04824578
64	0xbdaf9ee0	-0.08575225
65	0xbda06c21	-0.07833124
66	0x3c6f9890	0.014623776
67	0xbd558a02	-0.052133568
68	0xbb8b9088	-0.004259173
69	0xbd8366cc	-0.06416091
70	0x3c9b1b66	0.018933963
71	0xbc807c0d	-0.015684152
72	0xbd82f71b	-0.06394788
73	0xbd1aa11d	-0.037751306
74	0x3ca1e848	0.01976408
75	0xbba19b10	-0.004931815
76	0x3cb6942a	0.022287447
77	0x3caa2dcc	0.02077379
78	0xba19e98a	-0.0005871287
79	0xbd22e9a4	-0.0397736
80	0x3cb2c9bf	0.021824716
81	0xbc80059c	-0.015627675
82	0xbd65f90d	-0.056145716
83	0x3d9ecf98	0.07754439
84	0x3d920b5c	0.07131073
85	0xbdb290d8	-0.08719033
86	0xbd70963b	-0.05873702
87	0xbd047056	-0.032333694
88	0xbd6cc147	-0.05780151
89	0x3d783bb3	0.06060381
90	0xbd9ce4de	-0.076608405
91	0x3d83c0a0	0.06433225
92	0xbd1a6c5e	-0.037701003
93	0x3d043785	0.03227951
94	0x3cb1d4ca	0.021707911
95	0xbd4dccca	-0.05024413
96	0x3d387fd1	0.04504377
97	0xbd8fa585	-0.07013992
98	0xbd4746f3	-0.048651647
99	0x3cb40ec1	0.021979691
100	0x3d90eb93	0.07076182
101	0xbcf0b01d	-0.029380852
102	0xbd3e3770	-0.046439588
103	0xbd39b313	-0.045336794
104	0xbcf3864b	-0.029727122
105	0xbcb7e2ad	-0.022446955
106	0xbc5d1f1e	-0.013496188
107	0xbd323e00	-0.04351616
108	0x3cfac7ca	0.030612845
109	0x3bd092b2	0.0063651437
110	0xbd424c2c	-0.047435924
111	0xbd275c41	-0.040859465
112	0x3cabf394	0.02099017
113	0x3b5286f1	0.0032123888
114	0x3d7f3b1a	0.062312223
115	0xbbe168b0	-0.006878935
116	0xbd75d9f4	-0.06002231
117	0xbd69d55a	-0.057088234
118	0xbca3a16c	-0.019974433
119	0xbc61235b	-0.01374134
120	0x3c611c70	0.01373969
121	0xbc508854	-0.012727816
122	0x3d0c16bf	0.03420138
123	0xbcb29a8f	-0.021802215
124	0x3d827b70	0.063712
125	0x3c7fcd15	0.01561286
126	0xbcdce756	-0.026965778
127	0x3d901d03	0.070367835
128	0x3c8cae65	0.017173002
129	0xbd6eddd0	-0.058317006
130	0xbd475ac5	-0.04867055
131	0x3d466249	0.048433576
132	0x3d0e3433	0.03471775
133	0x3d780700	0.06055355
134	0xbc05b2bf	-0.008160292
135	0x3d5bde3f	0.053678747
136	0x3d19e1ec	0.03756897
137	0x3cb5c217	0.022187276
138	0xbcb1dd75	-0.021712044
139	0x3d9c9863	0.07646253
140	0x3c5b76a2	0.0133949835
141	0xbcbf671b	-0.023364594
142	0xbb825ec3	-0.0039785816
143	0x3d9f6889	0.077836104
144	0x3d590b41	0.05298925
145	0xbc100e9b	-0.008792545
146	0x3d9f66ff	0.07783317
147	0x3d08c415	0.033390123
148	0xbd3c1df7	-0.045927014
149	0xbd9b8978	-0.075945795
150	0xbe050628	-0.1299063
151	0xbe92eb6d	-0.2869524
152	0xbea823bf	-0.32839772
153	0xbdd7b855	-0.105332054
154	0xbe3dc2dd	-0.18531366
155	0xbe9fae68	-0.3118775
156	0xbec7decf	-0.39037177
157	0xbe9dc10a	-0.3081134
158	0xbe1eb509	-0.15498747
159	0xba017d8b	-0.0004939667
160	0xbc253526	-0.010083472
161	0xbe1eda52	-0.1551297
162	0xbe8fcf3e	-0.280878
163	0xbe7daca2	-0.24772885
164	0xbe77ad49	-0.24187197
165	0x3edc6969	0.43049172
166	0x3e6c49d7	0.23075043
167	0xbc413904	-0.011793379
168	0x3d1602f2	0.036623903
169	0x3c4c0a0f	0.01245357
170	0x3ef1b104	0.47205365
171	0x3e54b89d	0.2077355
172	0x3e8128ef	0.25226542
173	0x3eb17a9b	0.34663853
174	0x3ead33c0	0.33828545
175	0xbc9c3a8a	-0.019070882
176	0x3d4eb478	0.050465077
177	0x3c2e6e88	0.01064647
178	0xbce293a5	-0.027658293
179	0x3bce3579	0.0062929955
180	0x3cd113fb	0.025522223
181	0x3d2d1bfc	0.042263016
182	0xbbc03064	-0.0058651436
183	0xbd0ce34a	-0.034396447
184	0xbcebebcf	-0.028798966
185	0x3c4d324b	0.012524198
186	0x3e13b865	0.1442581
187	0x3e2296cf	0.15877841
188	0x3d83fa9b	0.064442836
189	0xbcabae30	-0.020957083
190	0xbd2b85d9	-0.041875694
191	0x3e080e55	0.13286717
192	0xbc8696e0	-0.016429365
193	0xbcf43bc8	-0.029813662
194	0xbdefc21e	-0.11706947
195	0xbbbcbfd5	-0.005760173
196	0xbdb4d42e	-0.088295326
197	0xbd48e96f	-0.049050745
198	0xbd99abab	-0.07503446
199	0xbdcde10f	-0.10052692
200	0x3cafece7	0.021475269
201	0xbe22b52d	-0.15889426
202	0xbe68c62e	-0.2273185
203	0x3def9ae8	0.11699468
204	0x3e8219e3	0.25410375
205	0x3cf1c8ca	0.029514689
206	0xbe86ec28	-0.26352048
207	0xbebb38d7	-0.36566803
208	0x3d832fec	0.06405625
209	0x3e7f4c14	0.24931365
210	0x3d271e35	0.040800292
211	0xbe93b672	-0.28850132
212	0xbef4cf2b	-0.47814307
213	0xbe4a98da	-0.1978487
214	0x3db2af6b	0.087248646
215	0xbd4be30f	-0.049777087
216	0xbe8189c8	-0.2530043
217	0xbe958a6d	-0.29207173
218	0xbe5e8796	-0.2173141
219	0xbc2cd8db	-0.010549749
220	0x3d60fbb1	0.05492753
221	0x3cc4c605	0.024020204
222	0xbcf661bb	-0.030075898
223	0xbe31729e	-0.17328879
224	0xbd58309f	-0.052780744
225	0xbd3c0f7e	-0.045913212
226	0xbdb80fcb	-0.08987387
227	0xbdbe968f	-0.093060605
228	0xbda291ed	-0.079379894
229	0x3c211763	0.009832236
230	0xbd8e7bd7	-0.06957214
231	0xbdd3d074	-0.10342494
232	0xbddb4875	-0.107071795
233	0xbe30af1b	-0.17254297
234	0x3cd406ed	0.025882209
235	0xbd86db0d	-0.06584749
236	0xbd7865b3	-0.060643863
237	0xbdf36ac7	-0.118856005
238	0xbe2f51cb	-0.17121045
239	0xbe431241	-0.19049932
240	0x3c4b67be	0.012414871
241	0x3d8e597d	0.06950662
242	0x3b68dd08	0.0035532136
243	0xbc8d8cf3	-0.017279124
244	0xbe3022bc	-0.1720075
245	0xbe0bfa79	-0.13669766
246	0x3df7d4cb	0.12101134
247	0x3e2d23bd	0.16908164
248	0x3da52b34	0.08064881
249	0xbd9bafd9	-0.076019
250	0x3d761b91	0.060084883
251	0x3db349a8	0.08754283
252	0x3d874a95	0.06606022
253	0xbd6b4b00	-0.057444572
254	0xbc492e09	-0.012279042
255	0xbb4bbd15	-0.0031088043

conv2.bias f4 [16]
0	0x3c094eb9	0.008380585
1	0x3d7c2fcb	0.061569016
2	0xbd5ea405	-0.05435564
3	0xbe4c7bfa	-0.19969168
4	0xbd7d0058	-0.061767906
5	0xbe68a7e7	-0.227203
6	0xbe655976	-0.22397408
7	0xbe4a089b	-0.19729845
8	0xbe1e78dc	-0.15475792
9	0xbd51eecc	-0.051253125
10	0xbe82ae0d	-0.25523415
11	0xbdd177e7	-0.10227948
12	0xbb5e6e0a	-0.00339401
13	0x3e4d00a1	0.20019771
14	0x3ca7b7e3	0.020473426
15	0xbebb9439	-0.36636522

fc1.weight f4 [120, 400]
0	0x3c9a843d	0.018861884
1	0xbd0d4c79	-0.034496758
2	0xbd4337ee	-0.04766076
3	0x3ba08d86	0.0048996834
4	0x3d155daf	0.036466297
5	0xbb284822	-0.002567776
6	0x3c769685	0.015050535
7	0x3c8a241e	0.016862925
8	0x3d131045	0.035904188
9	0xbd42ec3d	-0.047588576
10	0xbcaabe4c	-0.020842694
11	0x3b94a7e3	0.004536615
12	0x3d3bded9	0.04586682
13	0x3d3889e4	0.045053378
14	0xbd0fa14e	-0.03506594
15	0xbd186994	-0.037210062
16	0x3d41fc4c	0.04735975
17	0xbb8ce78a	-0.0043000625
18	0xbce8a3de	-0.02839845
19	0xbcce1b15	-0.025159398
20	0x3cebd452	0.028787766
21	0x3d06a8b3	0.032875728
22	0x3d309760	0.043113112
23	0xbbe78156	-0.0070649786
24	0xbc1c49c8	-0.009539075
25	0x3d90c688	0.07069117
26	0x3db8dd80	0.09026623
27	0xbd2cdcbd	-0.0422027
28	0x3d1af4aa	0.037830986
29	0xbd23ff13	-0.04003818
30	0xbcade5f6	-0.021227818
31	0x3d7b52a3	0.061358105
32	0xbd735d8f	-0.059415396
33	0xbdcfa80c	-0.10139474
34	0xbdf6150f	-0.12015735
35	0xbd3c13b6	-0.045917235
36	0x3d34a1d3	0.04409964
37	0xbcde096c	-0.027104102
38	0x3b8cdc76	0.004298742
39	0xbd311d28	-0.043240696
40	0xbd2059c4	-0.039148107
41	0xbc86ec22	-0.016470019
42	0x3c883945	0.01662887
43	0xbd891d8b	-0.06695088
44	0x3bbeeb6e	0.0058264052
45	0xbd035629	-0.03206459
46	0x3d96f7cd	0.07371483
47	0x3d74a4da	0.059727527
48	0xbd5e8ac1	-0.054331545
49	0x3d0782c2	0.033083685
50	0x3d88c595	0.06678311
51	0xbd84de7c	-0.06487748
52	0x3cb06fd7	0.021537704
53	0x3db496a5	0.08817796
54	0x3d5ff78c	0.05467944
55	0xbcd21d67	-0.025648786
56	0x3cff309b	0.031151107
57	0x3d24bef1	0.04022116
58	0x3da29073	0.07937708
59	0x3d890601	0.06690598
60	0xbcc902b3	-0.02453742
61	0xbd04618f	-0.0323196
62	0x3ccd2af9	0.025044905
63	0x3d432ed4	0.04765208
64	0xb8b31068	-8.538441e-05
65	0x3d802d09	0.0625859
66	0x3c3a76fc	0.011380907
67	0x3d5cc448	0.053898126
68	0xbca4d3f0	-0.02012059
69	0xbd3ed64c	-0.04659109
70	0xba941ff1	-0.0011301023
71	0x3c1b2e9f	0.009471565
72	0xbc489a4a	-0.012243817
73	0xbdb5ec15	-0.0888292
74	0xbe09af2d	-0.1344573
75	0x3d8d8ca6	0.06911592
76	0x3ca7b38d	0.020471359
77	0xbc4a9c04	-0.012366299
78	0x3dee226e	0.11627661
79	0x3d9ea23d	0.07745788
80	0x3d52219f	0.051301595
81	0x3ce4c32d	0.027925098
82	0xbc7ff48a	-0.0156222675
83	0xbc7d3149	-0.015453645
84	0xbb99956f	-0.0046870033
85	0x3c4a689a	0.0123540405
86	0x3da7044f	0.08155119
87	0x3c56530d	0.013081324
88	0xbd65f114	-0.056138113
89	0xbdd7f703	-0.105451606
90	0xbbdcc112	-0.006736883
91	0x3dacbda2	0.08434607
92	0x3da373c6	0.079810664
93	0xbbb08072	-0.0053864056
94	0xbe0d5363	-0.13801341
95	0xbd0b8128	-0.03405872
96	0xbce79bd6	-0.02827255
97	0xbbdc3010	-0.0067195967
98	0xbccd1822	-0.025035921
99	0xbdb32587	-0.08747392
100	0x3d892a4f	0.06697523
101	0xbb8906c7	-0.004181716
102	0xbbac23b8	-0.0052532814
103	0xbcdac491	-0.026705058
104	0xbb9051bc	-0.0044042747
105	0xbd05217d	-0.03250264
106	0xbb242d3c	-0.0025051376
107	0x3cefed77	0.029288037
108	0xbd7d1752	-0.061789818
109	0xbd7d4489	-0.06183294
110	0xbc342244	-0.010994498
111	0xbc422097	-0.01184859
112	0xbc679566	-0.01413474
113	0xbc579d1a	-0.0131600145
114	0xbcad6db6	-0.021170478
115	0xbc3f4ec5	-0.011676495
116	0x3c5d4c19	0.013506913
117	0xbd1f5e7d	-0.03890847
118	0xbb5f2196	-0.0034047118
119	0xbd582040	-0.05276513
120	0x3cdcce74	0.026953913
121	0x3d44ae9a	0.048018076
122	0xbd31e88d	-0.04343467
123	0xbce29318	-0.02765803
124	0x3d161adc	0.03664671
125	0x3d8414fa	0.064493135
126	0x3dbaa2f4	0.09113112
127	0x3dc69ab1	0.09697474
128	0x3e0dff00	0.13866806
129	0x3d91da93	0.07121768
130	0xbc8b5ae4	-0.017011113
131	0x3ced67a9	0.028980093
132	0xbd178c37	-0.036998954
133	0x3dbe063a	0.092785314
134	0xbce277d0	-0.027645022
135	0xbd51b8ec	-0.051201746
136	0xbd8cd3df	-0.06876349
137	0xbc64f109	-0.013973483
138	0xbdd4d180	-0.103915215
139	0xbe0c114f	-0.13678478
140	0xbd829aa0	-0.06377149
141	0xbce6f8ff	-0.028194902
142	0x3d037bf8	0.032100648
143	0xbd9b49ef	-0.07582461
144	0xbdab8c07	-0.083763175
145	0xbde8b8c4	-0.11363366
146	0xbd4c3e64	-0.049864188
147	0x3cb3deeb	0.021956882
148	0xbc2cda45	-0.010550086
149	0xbc8f8b81	-0.017522575
150	0x3cd414c6	0.025888812
151	0x3d207cbb	0.039181452
152	0x3b07b0ca	0.002070474
153	0xbcb0a7f1	-0.021564456
154	0x3bd8944e	0.006609476
155	0x3c0180a1	0.007904203
156	0xbc4d2187	-0.012520201
157	0xbd10c292	-0.035341807
158	0xbdba11ab	-0.09085401
159	0x3d5df711	0.0541907
160	0x3ce1d4ef	0.027567355
161	0xbd032aeb	-0.03202335
162	0xbc9fe11c	-0.01951652
163	0xbd98681c	-0.07441732
164	0x3b1910d4	0.0023355978
165	0xbd858487	-0.06519418
166	0xb955bfcb	-0.00020384711
167	0xbd17553c	-0.03694652
168	0xbd76a91a	-0.06021986
169	0x3d981078	0.07425016
170	0x3ba5e965	0.005063223
171	0x3ce9d872	0.028545592
172	0xbac7b4e6	-0.0015236407
173	0x3c179160	0.009250969
174	0x3c585f7b	0.013206358
175	0x3d5826ec	0.052771494
176	0x39c93747	0.00038378892
177	0xbcbefbe2	-0.023313466
178	0x3c0d2b2a	0.008616248
179	0x3e04b641	0.1296015
180	0x3c8a2028	0.016861036
181	0xbd2d9ef6	-0.042387925
182	0xbc01fc8c	-0.007933747
183	0x3db7dace	0.089772806
184	0x3e157ca9	0.14598335
185	0x3db8dc35	0.09026376
186	0x3d2c3e9e	0.042051904
187	0xbd84b8dd	-0.064805724
188	0x3d86a7eb	0.065749966
189	0x3d9eda5f	0.07756495
190	0xbc89b6d2	-0.016810808
191	0x3bad898b	0.0052959374
192	0xbc0e9aaf	-0.008703872
193	0x3cce8599	0.025210189
194	0xbb85f219	-0.004087698
195	0xbc4a77b4	-0.012357641
196	0xbcfbc0e8	-0.030731633
197	0xbc154579	-0.009110802
198	0xbc7003d1	-0.014649347
199	0xbdc8dc98	-0.098077
200	0x3d0f0387	0.034915473
201	0xbd37b027	-0.044845726
202	0xbd53e043	-0.051727545
203	0xba7460c7	-0.0009322282
204	0x3b134a04	0.0022474537
205	0x3cfcbb0f	0.030850915
206	0x3c9a8e31	0.01886663
207	0xbb65b814	-0.0035052346
208	0xba28d8f7	-0.00064410217
209	0x3d457dce	0.04821568
210	0xbd2bafff	-0.04191589
211	0xbcbccb4b	-0.023046156
212	0x3cf706cf	0.030154614
213	0xbd4a1f1e	-0.049346082
214	0x3cf02388	0.029313818
215	0x3d119ffd	0.035552967
216	0x3c59631a	0.013268257
217	0xbcfc0738	-0.03076516
218	0xbcd76806	-0.02629472
219	0xbc60277f	-0.013681292
220	0xbcc034ef	-0.02346274
221	0x3c8a7d16	0.016905349
222	0x3c9c4554	0.019076027
223	0x3c4366bd	0.01192635
224	0x3ca7ae1f	0.02046877
225	0xbd37b611	-0.044851366
226	0xbd3aa943	-0.045571577
227	0x3d25fa77	0.040522065
228	0xbb80bada	-0.0039285244
229	0xbd3da6e3	-0.046301734
230	0xbc777ddd	-0.015105692
231	0x3d0d64f0	0.03452009
232	0xbba746ac	-0.0051048603
233	0x3cf00088	0.029297128
234	0x3cef0c00	0.029180527
235	0xbc6df350	-0.014523342
236	0x3ccbed7c	0.024893515
237	0x3c75d1b3	0.0150036095
238	0xbd0aaa2a	-0.033853687
239	0xbc1f072b	-0.009706299
240	0x3cf105af	0.029421655
241	0x3c9a0213	0.018799817
242	0x3c04f6c4	0.008115474
243	0xbc40942b	-0.011754076
244	0xbd12924c	-0.03578405
245	0xbc9d3c75	-0.019193867
246	0x3d06227d	0.032747734
247	0xba6de382	-0.0009074734
248	0xbd05104c	-0.032486245
249	0x3c0585d1	0.00814958
250	0xbc76d970	-0.01506649
251	0xbcab7d41	-0.02093375
252	0xbdc06555	-0.093943276
253	0xbdc17844	-0.09446767
254	0xbd3c60c2	-0.045990713
255	0xbc52568f	-0.01283802

fc1.bias f4 [120]
0	0x3d508490	0.05090767
1	0xbda7c284	-0.08191398
2	0xbd61d271	-0.055132333
3	0xbc586cf5	-0.013209571
4	0xbca43b92	-0.020047937
5	0x3cabbf9f	0.020965395
6	0xbdd73925	-0.10508946
7	0xbc9c5a09	-0.0190859
8	0xbd702a1f	-0.05863392
9	0xbd03e3c3	-0.032199632
10	0x3d1136b1	0.03545255
11	0x3d02f2ab	0.031969707
12	0x3dbf324c	0.09335765
13	0xbbe2eb46	-0.0069250194
14	0x3d722b41	0.05912328
15	0x3d111aba	0.03542588
16	0xbc17ce4a	-0.009265492
17	0x3cc6606a	0.024215896
18	0x3c56a36a	0.013100484
19	0x3d9384f5	0.07203094
20	0x3e0ab2ba	0.13544741
21	0xbda136db	-0.07871791
22	0xbcf37e8c	-0.029723428
23	0xbd88a9b4	-0.06672993
24	0x3d359898	0.044334978
25	0x3d6a6d1d	0.057232965
26	0x3d65e2ce	0.0561245
27	0x3c930afb	0.017949572
28	0x3d09589e	0.033531778
29	0xbd2945a3	-0.041326176
30	0xbca8ddc5	-0.02061356
31	0xbd0bf41f	-0.03416836
32	0xbd9cf046	-0.07663016
33	0x3caee092	0.021347318
34	0xbdc15a4c	-0.09441051
35	0x3c5fec68	0.0136672035
36	0x3bd5ae0d	0.0065209926
37	0x3d85568f	0.0651065
38	0xbcac8bd8	-0.021062776
39	0xbc961682	-0.01832128
40	0x3d04b56a	0.032399572
41	0xbd0f0015	-0.034912188
42	0x3d15a660	0.03653562
43	0xbc7cd9f0	-0.01543282
44	0xbc628e5c	-0.013827886
45	0x3afaaafa	0.0019124441
46	0xbdcb2a7e	-0.09920214
47	0xbcb24752	-0.021762524
48	0x3b56becf	0.003276754
49	0x3c870fab	0.016486963
50	0xbe0170fa	-0.12640753
51	0x3dba94c6	0.091104075
52	0xbbad45e2	-0.0052878717
53	0x3c1c11ff	0.009525775
54	0x3d8b4b0e	0.06801425
55	0x3ae93d3a	0.0017794736
56	0x3d5532ab	0.052050274
57	0x3c706422	0.014672311
58	0xbc8ef127	-0.017448975
59	0xbd104f81	-0.03523207
60	0x3da317c8	0.0796352
61	0xbc6c38f4	-0.014417876
62	0x3d87dd18	0.06633967
63	0x3a407297	0.0007341294
64	0x3c961e3e	0.018324967
65	0xbde8b3a4	-0.11362389
66	0xbcbab4cc	-0.022791289
67	0x3ca2e69e	0.019885357
68	0xbde43838	-0.111435354
69	0x3df9feb7	0.12206786
70	0x3a413c63	0.0007371364
71	0x3cbcc923	0.023045128
72	0x3c7a4169	0.015274384
73	0xbc5762e9	-0.013146141
74	0x3e005771	0.12533356
75	0x3d170d41	0.036877874
76	0x3de2aa55	0.110676445
77	0xbd3c3c0a	-0.045955695
78	0x3cf4a991	0.029866012
79	0x3c588cb0	0.013217136
80	0xbcdc691a	-0.026905585
81	0xbc675621	-0.014119656
82	0xbd1c62c3	-0.038180124
83	0x3df2eec9	0.11861951
84	0xbd8a7ce2	-0.06762101
85	0xbc1b7110	-0.009487405
86	0xbd1da343	-0.038485777
87	0x3c4a08fb	0.012331243
88	0x3deb4e34	0.114895254
89	0x3ce0a6cd	0.027423287
90	0x3b8826aa	0.0041549997
91	0xbc5201d2	-0.012817817
92	0x3d88f98d	0.06688223
93	0xbcddfefd	-0.027099127
94	0xbc936bf6	-0.017995816
95	0xbb8a033a	-0.0042118104
96	0xbcbc5886	-0.02299143
97	0x3d0a7086	0.033798717
98	0xbc897028	-0.016777113
99	0xbd1539ed	-0.036432195
100	0x3defce47	0.11709266
101	0xbd76b5f7	-0.06023213
102	0x3d1fec14	0.0390435
103	0x3cfbf58a	0.03075673
104	0xbd0e18bc	-0.034691557
105	0xbce50655	-0.02795712
106	0xbc7516ba	-0.014959032
107	0x3d89492f	0.06703412
108	0x3d4a0cfa	0.04932878
109	0xbd8090b5	-0.06277601
110	0xbce1460c	-0.027499221
111	0x3c17f322	0.009274276
112	0xbb8e3323	-0.004339592
113	0x3cc238d1	0.023708733
114	0xbda9dd51	-0.08294166
115	0xbc9a602d	-0.018844688
116	0x3cf8682f	0.030323116
117	0x3d3c348a	0.045948543
118	0xbc81ec62	-0.015859786
119	0x3cd3e87d	0.025867695

fc2.weight f4 [84, 120]
0	0xbdbea586	-0.09308915
1	0x3b992115	0.004673133
2	0xbdbfdfa6	-0.093688294
3	0x3ded5c46	0.115898654
4	0x3d9a598b	0.0753661
5	0xbd3f62ae	-0.046724968
6	0xbcf2fee8	-0.029662564
7	0xbd457ea4	-0.048216477
8	0x3daee942	0.08540584
9	0x3b64aeb4	0.003489417
10	0x3c3be1a7	0.011467374
11	0xbcdd224a	-0.02699389
12	0xba88ad5e	-0.0010427644
13	0xbd49b3cd	-0.049243737
14	0xbc8c09c8	-0.017094508
15	0x3d5c190c	0.053734824
16	0x3d876d17	0.06612604
17	0xbdba0867	-0.09083634
18	0x3ccb646d	0.02482816
19	0x3d83fd8c	0.064448446
20	0x3c877fc9	0.016540425
21	0x3c85de91	0.01634148
22	0xbd93f4a1	-0.07224394
23	0xbd233eeb	-0.039854925
24	0xbc11232a	-0.008858481
25	0xbd847633	-0.06467857
26	0x3c4d98c4	0.012548629
27	0xbd423bd3	-0.047420334
28	0xbdb6ae9d	-0.089200236
29	0xbd0d2840	-0.034462214
30	0xbc5586d0	-0.01303263
31	0x3a83708f	0.0010028052
32	0x3db5b61c	0.08872625
33	0xbd90245f	-0.07038187
34	0x3d61818e	0.055055194
35	0x3d8deb9e	0.06929706
36	0xbd254945	-0.04035308
37	0xbcd51076	-0.026008826
38	0xbda598c9	-0.08085782
39	0x3b5e730d	0.0033943087
40	0x3c4c418c	0.0124667995
41	0xbdab2284	-0.08356193
42	0x3dad9c02	0.08477022
43	0xbdbe709f	-0.092988245
44	0xbd38da29	-0.04512993
45	0x3ccebb30	0.025235742
46	0x3d8b04f0	0.06788051
47	0xbb9958ac	-0.00467976
48	0x3d224158	0.039613098
49	0xbc8cc078	-0.01718162
50	0xbc5c44b2	-0.013444113
51	0xbc934412	-0.017976794
52	0xbdac4175	-0.084109224
53	0x3d547d16	0.051877104
54	0x3d51ba03	0.051202785
55	0x3da26cef	0.07930934
56	0xbd1edc02	-0.038784035
57	0x3c542b71	0.01294981
58	0x3d9ffa95	0.078114666
59	0x3cfd4827	0.030918194
60	0x3da80ba7	0.082053475
61	0xbb1c18ce	-0.0023818496
62	0x3d2a2146	0.04153564
63	0x3da0275e	0.07820009
64	0x3d33d7a9	0.04390684
65	0xbd50d604	-0.05098535
66	0x3c99d46d	0.01877805
67	0xbd41c170	-0.047303617
68	0xbdc49689	-0.09599025
69	0xbc1bb809	-0.009504327
70	0xbc684166	-0.014175748
71	0x3d812596	0.06305997
72	0xbd810bd6	-0.06301086
73	0xbd907f44	-0.07055524
74	0xbc44636d	-0.011986596
75	0x3c9d8ab3	0.019231176
76	0xbd0e7fb2	-0.03478975
77	0xbda7d620	-0.08195138
78	0xbd752284	-0.05984737
79	0xbc64426b	-0.013931851
80	0x3cfecf28	0.03110464
81	0x3da4647a	0.08026977
82	0xbd208a72	-0.03919453
83	0x3cda995b	0.026684454
84	0xbb30bfcf	-0.0026969796
85	0xbdac77c8	-0.08421284
86	0xbc75b234	-0.0149961
87	0xbd7efb28	-0.06225124
88	0x3d322824	0.043495312
89	0x3dcba5cd	0.09943733
90	0xbdcd500b	-0.100250326
91	0xbd998601	-0.07496262
92	0x3c59b798	0.013288401
93	0x3dd4c716	0.10389535
94	0xbb1a4d8b	-0.0023544754
95	0xbd84a1f7	-0.06476205
96	0xbcc6188e	-0.02418163
97	0xbda3f6c1	-0.08006049
98	0xbbc4dd08	-0.0060077943
99	0x3d973458	0.07383031
100	0x3dae16fd	0.085004784
101	0xbd862196	-0.06549375
102	0x3ddf7b21	0.10912157
103	0x3d5c37bb	0.053764086
104	0xbd24ae63	-0.04020537
105	0x3d8a8dc8	0.06765324
106	0xbdad1d2d	-0.084528305
107	0xbbf74244	-0.0075457413
108	0x3d96b522	0.07358767
109	0x3b2bb816	0.0026202253
110	0xbd5ab722	-0.053397305
111	0xbdb0b024	-0.08627346
112	0xbd626f7d	-0.055282105
113	0xbd67807f	-0.056519028
114	0xbd5c071f	-0.05371773
115	0xbd3a83be	-0.045535795
116	0x3d021ac9	0.031763826
117	0x3dc34604	0.09534839
118	0xbc8b1c24	-0.016981192
119	0x3dbe4b11	0.092916615
120	0x3dbba1b7	0.09161704
121	0x3cd552e7	0.026040507
122	0x3da29080	0.079377174
123	0xbc77effb	-0.015132899
124	0x3ccdad69	0.025107102
125	0x3d14644b	0.03622846
126	0xbcbd37af	-0.023097841
127	0xbdceebcb	-0.10103568
128	0xbd7bb96b	-0.061456125
129	0xbd936553	-0.071970604
130	0x3cf839ad	0.03030094
131	0xbc98a38e	-0.018632676
132	0x3d9357ea	0.07194503
133	0xbd2f8dd8	-0.042859882
134	0x3d8c872f	0.06861722
135	0x3da1fe81	0.07909871
136	0xbd73b243	-0.059496175
137	0xbd96c3a8	-0.07361537
138	0xbc7d50fe	-0.015461205
139	0x3ccdd35d	0.0251252
140	0xbda12539	-0.07868428
141	0x3b2cff94	0.0026397454
142	0xbc50adaf	-0.012736722
143	0xbcab7b7d	-0.020932907
144	0x3d803468	0.06259996
145	0x3bdbe43e	0.006710558
146	0x3bdeb322	0.0067962566
147	0x3d80f533	0.06296768
148	0x3c6cacb5	0.014445473
149	0xbd84d351	-0.06485618
150	0xbde88ce8	-0.11355001
151	0xbd264b06	-0.04059889
152	0x3d41ab5c	0.04728256
153	0x3cb195b5	0.021677831
154	0x3ce16f54	0.027518906
155	0xbd094069	-0.033508692
156	0x3df18818	0.11793536
157	0xbcb19c4d	-0.021680975
158	0xbc9cb712	-0.019130263
159	0xbd804a51	-0.06264175
160	0xbdb05333	-0.08609619
161	0x3ca8189e	0.02051955
162	0x3d55ece4	0.05222787
163	0xbdbcccd4	-0.09218755
164	0x3d813ce3	0.06310441
165	0xbdad8827	-0.084732346
166	0x3d2c4db3	0.042066287
167	0xbdb0a84e	-0.086258516
168	0x3cf9f934	0.030514337
169	0xbd80b093	-0.06283679
170	0xbcb7d73a	-0.022441495
171	0xbcd069a6	-0.025441002
172	0xbd674a79	-0.056467507
173	0x3d9ad95d	0.0756099
174	0xbcef4a73	-0.029210305
175	0x3d8a9aa4	0.067677766
176	0xbcf08479	-0.029360043
177	0x3d39de99	0.0453783
178	0x3abcd724	0.0014407379
179	0xbd9353f1	-0.07193745
180	0x3dbbad46	0.09163909
181	0xbd9c766d	-0.076397754
182	0x3d80784b	0.06272944
183	0xbd542440	-0.051792383
184	0x3dc2e200	0.09515762
185	0xbbc8e3c6	-0.0061306683
186	0x3dbeec23	0.09322383
187	0x3df503c9	0.119636126
188	0xbd34f6d6	-0.044180714
189	0x3d0b6d4c	0.03403978
190	0x3c22cf35	0.009937097
191	0xbd6bff78	-0.05761668
192	0x3d947ebf	0.072507374
193	0x3cc3a5cd	0.02388277
194	0x3c6a9ed6	0.014320096
195	0xbcb871cb	-0.022515198
196	0xbd0d7628	-0.03453651
197	0xbd1be199	-0.038056944
198	0x3d609caf	0.054836925
199	0x3d9e9864	0.0774391
200	0xbd9f1419	-0.07767505
201	0xbcbc3417	-0.022974057
202	0x3c57d753	0.013173896
203	0xbd6939db	-0.05693994
204	0x3ca20456	0.019777458
205	0xbd905f5d	-0.07049439
206	0xba79293f	-0.00095047423
207	0x3d6514df	0.055928107
208	0x3dae178a	0.085005835
209	0xbb62c7b3	-0.0034603893
210	0x3db4a403	0.08820345
211	0x3d8a1982	0.067431465
212	0xbc5f593a	-0.013632113
213	0x3d35331c	0.044238195
214	0xbd87afcd	-0.06625328
215	0xbce0003d	-0.027343864
216	0x3dcc8bd1	0.09987605
217	0x3c890e27	0.016730381
218	0x3d3286d1	0.043585602
219	0xbd382cbe	-0.044964544
220	0xbd8a92f4	-0.0676631
221	0xbdb5432d	-0.088507034
222	0xbd615702	-0.055014618
223	0x3d82f39f	0.06394123
224	0x3ca8966d	0.020579541
225	0x3c5e7b30	0.013579175
226	0xbd87adaf	-0.066249244
227	0x3df2df97	0.11859053
228	0xbdc4fb19	-0.096182056
229	0x3a746286	0.00093225425
230	0x3d7abcfe	0.061215393
231	0x3c1a1433	0.00940423
232	0x3ddf0882	0.108902946
233	0xbd5cc448	-0.053898126
234	0x3bb29c42	0.0054507563
235	0x3c7c9daa	0.015418449
236	0x3deaf423	0.11472347
237	0x3cf8a9d1	0.030354412
238	0xbdd7e052	-0.105408326
239	0xbda25c2a	-0.07927735
240	0x3db46279	0.08807845
241	0xbd4d1b2b	-0.050074738
242	0xbda190b2	-0.078889266
243	0xbc2f073e	-0.010682879
244	0x3c10aa04	0.008829597
245	0x3c88bf17	0.016692681
246	0x3dc53782	0.09629728
247	0x3cbbcca8	0.022924736
248	0x3c9e17ac	0.019298397
249	0xbc8c3c44	-0.01711858
250	0x3d2092bb	0.039202433
251	0x3c22c2ce	0.00993414
252	0x3dae1532	0.085001364
253	0xbc858392	-0.01629809
254	0xbd4889fa	-0.04895971
255	0x3c0dfb42	0.008665862

fc2.bias f4 [84]
0	0x3d92700a	0.07150276
1	0x3d670bbb	0.05640767
2	0x3d4fbfd8	0.050720066
3	0x3e2873d1	0.1645043
4	0xbd168c67	-0.03675499
5	0xbd3ed518	-0.04658994
6	0xbe422246	-0.18958387
7	0x3da5cc7b	0.08095642
8	0x3d8b7707	0.06809812
9	0x3d80430f	0.062627904
10	0xbd28a8cc	-0.041176602
11	0xbd41c5a5	-0.04730763
12	0x3df7abbf	0.12093305
13	0x3dd1fcda	0.10253306
14	0xbd9f4585	-0.07776932
15	0xbdc3c13f	-0.09558343
16	0xbaa8a7cc	-0.001286739
17	0xbd7e799b	-0.06212769
18	0x39c392ec	0.00037302764
19	0xbd0aaf40	-0.033858538
20	0x3cf22eb4	0.029563285
21	0xbdbdb108	-0.09262282
22	0x3d96e7c2	0.07368423
23	0x3dedfed8	0.11620873
24	0x3d77387a	0.060356595
25	0xbcefaf34	-0.029258348
26	0x3dd6b3c6	0.10483508
27	0x3d04bef5	0.032408673
28	0x3bab5692	0.005228826
29	0xbdb1ce3e	-0.08681916
30	0xbc8a5d2e	-0.016890135
31	0xbd235d5b	-0.039883953
32	0xbde19563	-0.110148214
33	0x3c6b776a	0.014371732
34	0x3d4ccded	0.050001074
35	0xbdd76514	-0.10517326
36	0x3d359987	0.04433587
37	0x3ce0e3ac	0.027452312
38	0x3dcc3a02	0.099720016
39	0xbdaef446	-0.08542685
40	0xbdadd652	-0.08488144
41	0xbdac5b35	-0.08415834
42	0xbd9302ee	-0.07178293
43	0x3cfbb132	0.030724142
44	0xbd212375	-0.039340455
45	0xbcd782bd	-0.026307458
46	0x3dd62894	0.104569584
47	0xbd03a9e8	-0.032144457
48	0xbd0534a3	-0.0325209
49	0x3db05564	0.08610037
50	0xbd1c6e49	-0.038191114
51	0x3d60fccc	0.054928586
52	0x3d3513ff	0.044208523
53	0xbaa5a3ef	-0.0012637357
54	0xbd97cbb5	-0.07411901
55	0xbd968c1b	-0.07350942
56	0xbba69037	-0.0050831097
57	0x3dd74a5e	0.10512231
58	0x3d890b21	0.06691576
59	0xbd8391f0	-0.0642432
60	0xbd5a2fc8	-0.053268224
61	0x3a9e42e5	0.001207438
62	0x3d056b9e	0.032573335
63	0x3d4a5cde	0.04940497
64	0xbdad03c1	-0.084479816
65	0xbd61e7a5	-0.055152554
66	0xbd2bf983	-0.041986
67	0xbd705fb6	-0.058685027
68	0x3d502926	0.050820492
69	0x3d873b5f	0.06603121
70	0xbda2868d	-0.0793582
71	0x3e118070	0.14209151
72	0x3d0a1606	0.03371241
73	0x3d6c4f47	0.057692792
74	0x3d5cc593	0.05389936
75	0x3ce361b9	0.027756559
76	0xbcda1a98	-0.026624009
77	0x3d00b7f1	0.03142542
78	0x3d6b3f91	0.05743367
79	0x395728be	0.00020519175
80	0xbc303930	-0.010755822
81	0xbd64e2e0	-0.055880427
82	0xbe156316	-0.1458858
83	0x3d5da9c9	0.054116998

fc3.weight f4 [10, 84]
0	0xbe1f486e	-0.15554973
1	0xbdc98221	-0.09839273
2	0x3e33afec	0.17547578
3	0x3b09c9c7	0.002102481
4	0xbd8ec5cb	-0.0697132
5	0xbdade0b9	-0.08490128
6	0xbe3635ca	-0.17793956
7	0x3d581df2	0.052762933
8	0x3e139a4a	0.14414325
9	0x3e2da02e	0.16955635
10	0xbeace101	-0.33765414
11	0x3ce482f6	0.027894478
12	0xbe594e69	-0.21221317
13	0xbd7c9881	-0.061668877
14	0x3d632a41	0.05546022
15	0xbdece605	-0.1156731
16	0x3e14618e	0.14490339
17	0xbda33814	-0.079696804
18	0xbe6680b3	-0.22510032
19	0xbe0c72ce	-0.1371567
20	0xbe1140dc	-0.14184898
21	0x3d33f508	0.043934852
22	0x3d16420f	0.036684092
23	0xbdb83c90	-0.089959264
24	0xbe075f8e	-0.13220045
25	0x3e4d88c8	0.20071709
26	0xbdfc3eee	-0.123166904
27	0x3e0091da	0.12555638
28	0xbda1f070	-0.07907188
29	0x3df9f38c	0.12204656
30	0x3d0c1032	0.034195133
31	0x3e6e12fb	0.23249428
32	0xbe16ff58	-0.14745843
33	0xbe254964	-0.16141278
34	0xbe4920f2	-0.19641474
35	0x3e13eaa1	0.14444973
36	0x3d17c6c1	0.03705478
37	0x3dab598c	0.08366689
38	0x3e17678d	0.14785595
39	0xbdfcb0aa	-0.123383835
40	0x3c3ede8e	0.011649741
41	0x3da012e2	0.078161016
42	0xbe978bc4	-0.2959882
43	0x3defb1c5	0.11703829
44	0xbdc4158e	-0.09574424
45	0x3e1a3d49	0.15062441
46	0xbdfd66a0	-0.1237309
47	0xbde74e5b	-0.11294242
48	0xbe54145f	-0.20710896
49	0xbe0a60c2	-0.13513473
50	0x3da5dfff	0.080993645
51	0xbe3f4ac0	-0.18680859
52	0xbeac13bb	-0.33608803
53	0x3e56647f	0.20936774
54	0xbe84b4fa	-0.25919324
55	0x3e0a1283	0.13483624
56	0x3e14f068	0.14544833
57	0xbe05285c	-0.13003677
58	0x3d66ceab	0.056349438
59	0xbd033a78	-0.032038182
60	0xbe81bdc8	-0.25340104
61	0xbe098faf	-0.13433717
62	0x3ead3344	0.33828175
63	0xbe3bd1eb	-0.18341796
64	0xbd86cd23	-0.065820955
65	0xbd5c0fb2	-0.053725906
66	0x3d9a009a	0.07519646
67	0x3e736184	0.23767668
68	0xbd478868	-0.04871407
69	0x3d389811	0.045066897
70	0xbd1f9c56	-0.038967453
71	0x3cf39ee3	0.029738849
72	0x3e1ca686	0.15297899
73	0x3c2c5fb2	0.010520862
74	0xbd94f09f	-0.07272457
75	0x3e526d4d	0.20549507
76	0x3ea7a413	0.32742366
77	0x3d6bcdfa	0.05756948
78	0xbe9d9d87	-0.30784246
79	0x3ddcc3f0	0.107795596
80	0x3dea8434	0.11450997
81	0x3de578c0	0.11204672
82	0x3dfa0609	0.12208182
83	0xbe651558	-0.22371423
84	0xbe0197a9	-0.1265551
85	0xbe0bc007	-0.13647471
86	0x3d4e72f1	0.050402585
87	0xbe865b1f	-0.26241395
88	0x3dcaf97f	0.09910869
89	0x3cea2c22	0.028585497
90	0x3e1851f4	0.14875013
91	0xbe75e21b	-0.24012034
92	0xbe65427e	-0.22388646
93	0xbdf9ba3a	-0.12193723
94	0x3db4b2b5	0.08823148
95	0x3d35ddd4	0.044401005
96	0xbe1fe210	-0.1561358
97	0xbe8af5ba	-0.271406
98	0x3b836268	0.0040095337
99	0x3e344ee8	0.17608225
100	0xbd2dbd2e	-0.042416744
101	0xbcd4f2a0	-0.025994599
102	0xbd8d6b87	-0.06905275
103	0xbe4d0c8f	-0.20024322
104	0x3d601778	0.05470988
105	0x3dabc04a	0.083862856
106	0xbe1d5e6a	-0.15368047
107	0xbe5c130f	-0.21491645
108	0x3cc2062b	0.023684582
109	0xbd7b1109	-0.061295543
110	0xbdb24514	-0.08704582
111	0x3e2146d6	0.15749678
112	0x3d99629a	0.0748951
113	0xbc08a8b4	-0.008341003
114	0xbbaadf11	-0.00521458
115	0x3e3d73fd	0.18501277
116	0x3d92e0ee	0.07171808
117	0xbdbc0af1	-0.091817744
118	0xbd0579b4	-0.03258677
119	0x3e420d98	0.18950498
120	0x3da84112	0.08215536
121	0xbe35cb65	-0.1775337
122	0xbe5f1807	-0.2178651
123	0x3e45234c	0.19251746
124	0x3d3a42ab	0.045473736
125	0x3e4a51b3	0.19757728
126	0xbc9a05b2	-0.018801544
127	0x3ce5bda0	0.028044522
128	0x3db06916	0.086137936
129	0x3d82257e	0.06354807
130	0xbe0b35fb	-0.1359481
131	0xbdf5f766	-0.12010078
132	0x3dbccc0f	0.092186086
133	0xbe441fe9	-0.19152798
134	0xbca621d2	-0.020279799
135	0xbe03664c	-0.12831992
136	0x3e3103d6	0.1728662
137	0xbcfac19a	-0.030609895
138	0x3c81b7a4	0.015834637
139	0x3daad7ec	0.08341965
140	0xbd245da2	-0.040128358
141	0xbe82a725	-0.25518146
142	0xbd5461d2	-0.0518511
143	0x3d033617	0.032034006
144	0x3d9278d5	0.07151953
145	0xbbbf562b	-0.0058391294
146	0x3c4f449d	0.012650636
147	0xbd82489c	-0.063615054
148	0x3daa23e0	0.08307624
149	0xbd8cd15f	-0.06875872
150	0xbe20ff87	-0.15722476
151	0x3e885978	0.2663076
152	0x3cce3378	0.025171027
153	0xbe338073	-0.17529468
154	0x3c409502	0.011754276
155	0xbe102654	-0.14077121
156	0x3d101c26	0.035183094
157	0xbdbdb54d	-0.09263096
158	0x3cb9f8dd	0.022701675
159	0xbda47e44	-0.08031896
160	0x3e8dcdb5	0.27696005
161	0xbe3905bb	-0.18068592
162	0xbdeca046	-0.11554007
163	0xbc66fd88	-0.0140985325
164	0x3de44f14	0.111478955
165	0x3e4212e2	0.18952516
166	0x3e6c3baf	0.23069642
167	0xbe1a49c9	-0.1506721
168	0xbdc18c9a	-0.09450646
169	0x3d9b91d6	0.075961754
170	0x3d7a832f	0.061160263
171	0xbe55760b	-0.20845811
172	0x3e52f064	0.20599514
173	0x3d5f1e56	0.05447229
174	0x3dcadd7c	0.09905526
175	0xbe13359e	-0.14375922
176	0xbe0fd059	-0.14044322
177	0x3e191b17	0.1495174
178	0x3e00625d	0.12537523
179	0xbdaec2ff	-0.08533286
180	0xbe285187	-0.1643735
181	0xbe81a192	-0.2531858
182	0xbdccbea5	-0.099973
183	0x3de40275	0.11133281
184	0xbd3d9d4f	-0.0462926
185	0xbdeb33ba	-0.114844754
186	0x3e1d36ca	0.15352932
187	0xbd6c27ac	-0.05765502
188	0x3d187795	0.037223417
189	0x3c8d0b51	0.01721731
190	0xbd323334	-0.043505862
191	0xbe214353	-0.15748338
192	0x3b4a860e	0.0030902657
193	0xbe165bad	-0.14683409
194	0x3e8b1bc2	0.27169615
195	0x3e27cfbd	0.1638784
196	0x3e38c6a9	0.18044533
197	0xbd8e4fbc	-0.06948802
198	0x3e4722dc	0.19446892
199	0x3dc0a61d	0.094066836
200	0xbdd47780	-0.10374355
201	0x3e2be561	0.1678672
202	0x3e2ea122	0.17053655
203	0x3d9abb60	0.0755527
204	0x3dbdf6db	0.092755996
205	0xbe976f45	-0.2957708
206	0xbe1675f9	-0.1469344
207	0xbda1d2f0	-0.07901561
208	0x3de300fc	0.11084172
209	0x3d20d91e	0.03926956
210	0x3e6c9d55	0.23106892
211	0xbd249fb5	-0.04019137
212	0x3d83352a	0.064066246
213	0x3c8b3628	0.016993597
214	0xbe2ecc3a	-0.17070094
215	0xbdb8abd5	-0.09017149
216	0x3e2e6e8e	0.17034361
217	0xbd967d8d	-0.07348166
218	0x3c1651a7	0.009174741
219	0xbe0695c0	-0.13143063
220	0x3e73e937	0.23819433
221	0x3dcd731f	0.10031723
222	0xbc7cc1cf	-0.015427067
223	0x3d4efa2a	0.050531544
224	0xbc771e2e	-0.015082879
225	0xbe18d6c2	-0.14925674
226	0x3e1904ae	0.14943191
227	0x3e3dd6f2	0.18539026
228	0x3e639ec6	0.22228536
229	0x3d07b28e	0.033129267
230	0xbd9880fc	-0.07446477
231	0x3d682a18	0.05668077
232	0x3e0cec3b	0.1376199
233	0xbdd0c5b5	-0.101939596
234	0x3d63aade	0.055582874
235	0x3c95e897	0.018299384
236	0xbd290b1c	-0.04127036
237	0x3d75af98	0.059981912
238	0x3d6c1205	0.057634372
239	0xbe4d3b73	-0.2004221
240	0xbe7a50dd	-0.2444491
241	0xbd908fd3	-0.07058682
242	0xbe2d7958	-0.1694082
243	0xbcb8e4a8	-0.02256997
244	0x3e5d9920	0.21640444
245	0xbe421323	-0.18952613
246	0xbe372488	-0.1788503
247	0x3c813fbd	0.015777463
248	0xbe062f4c	-0.1310398
249	0x3e5d49a3	0.21610121
250	0x3e8466e6	0.25859755
251	0x3e16dfb6	0.14733776
252	0xbcd43d51	-0.025908144
253	0xbdeea360	-0.11652255
254	0xbe3080c3	-0.17236619
255	0xbe434c07	-0.19071971

fc3.bias f4 [10]
0	0x3c3cc555	0.011521657
1	0xbef1a3b2	-0.47195202
2	0xbe3d9ad9	-0.18516101
3	0x3ceb4a5f	0.028721986
4	0x3dd47eaf	0.103757255
5	0xbe638d57	-0.22221886
6	0x3e21b6d1	0.15792395
7	0x3e972025	0.29516712
8	0x3dcb1f4a	0.09918077
9	0x3d2cab0a	0.042155303
